model_best.onnx (onnx, 17976 bytes, 5 tensors)

fc1.weight f4 [16, 1]
00000000: 4324 943d c42e 0b3f c016 7b3c 2139 443f
00000010: 70db 923e 5574 97be 9f0b a23f 3e45 85bf
00000020: f012 db3d 77a5 2cbf 261a 2dbe 49c0 34bf
00000030: a5f7 47bf ec5e 4c3f 5e6d 3b3f 5b63 843f
0.07233479 0.54368234 0.015325248 0.7664967 0.28683043 -0.29580942 1.2659796 -1.0411756
0.106969714 -0.6743998 -0.16904506 -0.70605904 -0.7811225 0.7983234 0.73213756 1.0342821

fc1.bias f4 [16]
00000000: 4f00 873f 6e55 243f 0ac8 81bd f5c8 89be
00000010: e04b 8b3f 296e 803f 014a 99be c050 c7bd
00000020: 745b d0be 2c32 edbe b623 913f 0e63 4bbf
00000030: 57eb 0bbf bfb2 983d b2b4 513f 6899 373f
1.0546969 0.64192855 -0.063369825 -0.2691113 1.088253 1.0033618 -0.29939273 -0.09732199
-0.40694773 -0.4632734 1.1339023 -0.7944802 -0.54655975 0.07455968 0.81916344 0.71718454

fc2.weight f4 [32, 16]
00000000: d57f 9cbe b878 c1be 2c0e 68be f0a5 53bd
00000010: d82f ecbe f713 6f3e e80c 253e 8f83 f63d
00000020: a807 c0bd 27fb 223f 75a7 00bd 6dfc 193f
00000030: a842 223f c8e9 e2bd 6a50 a6be 984b 2f3d
00000040: 9a0d f03e 86e5 dd3e e3fe 18be 31f4 903e
00000050: 353e d73e 3fc2 e43e 5324 113f 57c4 9fbe
00000060: 88a6 08bd 6789 1fbe 2bc5 7c3e b8e7 98be
00000070: 972d 983d 3362 db3e be6d da3e 01e8 e53e
00000080: ef98 223f b3a4 203f 0625 12be 086b 673d
00000090: c601 873e 337a a53e 3698 5f3e b15a c5be
000000a0: f4fe 023e 872f d9bd aa4f 233f 0c9c e8be
000000b0: 677f 88bb ba8c 6b3e 0d5f 273f 009b 2c3e
000000c0: 55be d43c ac22 99bd 55d9 9c3d 46eb 5ebe
000000d0: 0fdd 0abe 8745 04be f48c 9f3d 781f ddbd
000000e0: 5e77 493e 9e38 67be 429a 4d3e 39a9 3b3d
000000f0: 7562 303e 386d 6e3d a0ba bdbd 5312 7bbe
00000100: e85c 2b3e 711f 1c3f 1075 7abd 53c6 993e
00000110: 2b68 cc3e 0394 623e 5224 b13e 676d 0b3d
00000120: 44bd 753e 2520 a1be 5e58 f83e 4cb4 acbe
00000130: 88b9 6dbe c557 e73e d0d0 0d3f 8d71 733e
00000140: b023 8ebe 2e72 8b3d bd09 48bc f152 01be
00000150: fb57 a6bd ccf6 0fbe 284a 0dbe 5ecb 68be
00000160: 9063 06bd b00f 06bd 0948 38bd b496 0b3e
00000170: e81e 15be e1c7 43be 6f58 fe3c b48e f73d
00000180: f24e 3dbe 5ce8 26be 10eb bbbd da78 783e
00000190: 649c 13be c0aa 0d3c 307a 463e fc08 07be
000001a0: 34a9 edbd d4fe e1bd 7cd8 403e 5cee c1bd
000001b0: c495 963d 8097 0abc 4039 b53b a632 11be
000001c0: adb2 be3e 1245 053f 9318 5e3e cd29 9c3d
000001d0: 87dd 943e c433 173e 50b6 863e 1093 2bbd
000001e0: 0cf8 a13d e52c 04be 501f 113f 963c b5be
000001f0: f98a c9be ac53 cd3e 6e7c d53e 433c c93e
00000200: 51c5 f63e 88ac 48be e810 0a3e 00f3 e0bb
00000210: 3e58 b7bd 4ec5 a33e ce5f cebf 7aa0 273f
00000220: e8eb 7a3d 807f d33e 48b1 f83e 3820 ae3e
00000230: eca8 ea3e 5cc4 5ebf b404 84be 56e3 3dbf
00000240: 0073 71bc 9463 51be c849 693e be47 333e
00000250: 947e 2abe 48b6 c43d 080f 46bd 0075 e8bd
00000260: 9a15 713e cc02 0cbe 18e5 30bd 80ee ff3d
00000270: 4861 9cbd 6eb1 7b3e 3ace 39be 60c7 d53c
00000280: 1067 cfbd 1c64 c73d 005d c7ba 3ce6 52be
00000290: 4a06 7fbe 30e4 fe3c 0855 4f3e 487a 7dbe
000002a0: cc9d e63d c0dc bbbc 86ce 35be a0ca c43d
000002b0: 681e 1b3d c854 9cbd cab3 6ebe 809e 9dbd
000002c0: 7944 93be 3cf0 0a3e a2bf 1cbe 00f3 a7bd
000002d0: b4dc 9b3d 6e3e 553e e172 09be d870 8c3e
000002e0: b099 d6bc 6e9c c23e 2c36 153e b7a8 813e
000002f0: f450 a53e 072d 423e 688d 37bd de9f 4cbe
00000300: 0018 b8bc 9e90 54be b848 d43d 00eb 8abb
00000310: 0717 c6bd f14b 1a3d 5467 bd3d f7b4 64be
00000320: bcac 273e 30f8 523e 992b d63d 1e3e 21be
00000330: 009e 66bd 7051 803c 4609 d7bd 515f dcbc
00000340: 4c00 e93d 5dec 8ebd 2e08 c5bd b238 1abe
00000350: 5fd1 433e b002 45be d175 88bd 6e4b 98bc
00000360: b088 423d 9cd9 b6bd 119b 5abe dc61 a13d
00000370: 302b d9bd 09d7 69bd 0843 20be bc65 0abd
00000380: 92bb 673e 65e4 6ebe 90ba 32be a812 14be
00000390: 4795 303e ccdc 50bd 3c88 8cbd 9b3b 343d
000003a0: 605b 963d 062f 61be af75 c3bd 41b8 cd3d
000003b0: 7954 823d 76a9 68be c8e4 433e 8a82 54be
000003c0: 1ac9 063f de7f 063f d6b5 bfbd 50b5 b63e
000003d0: 7b86 0a3f 9f98 ed3e 10f8 2e3e 5e95 eebd
000003e0: d2c3 32be 64f7 88be 4ab9 f93d ef57 dabe
000003f0: 9a0c 56bd 893c 863e 3a43 593e 423e 373e
-0.30566278 -0.37787414 -0.22661656 -0.051671922 -0.46130252 0.2334746 0.16118205 0.120368116
-0.0937646 0.6366448 -0.0314097 0.60150796 0.6338296 -0.110797465 -0.32483226 0.0427967
0.46885377 0.43339175 -0.14940982 0.28311303 0.42039648 0.44679448 0.5669605 -0.31204483
-0.03336194 -0.15579759 0.24684589 -0.29864287 0.074305706 0.42848358 0.42661852 0.44903567
0.6351461 0.6275131 -0.14271936 0.056498557 0.2636854 0.32319793 0.21835408 -0.38545755
0.1279257 -0.10604768 0.6379343 -0.45431554 -0.004165578 0.23002902 0.6537941 0.16856003
0.025969664 -0.07477316 0.0765864 -0.21769437 -0.1356089 -0.12917148 0.077905566 -0.10797018
0.19674441 -0.22580191 0.20078376 0.04581568 0.17225058 0.058209628 -0.092641115 -0.24518709
0.1673466 0.60985476 -0.061146796 0.30034122 0.39923224 0.22126774 0.34598023 0.03403988
0.2399798 -0.31469837 0.4850492 -0.33731306 -0.23215306 0.4518415 0.5539675 0.23773785
-0.27761602 0.068088874 -0.012209353 -0.12629296 -0.0812225 -0.1405899 -0.1379782 -0.22733828
-0.032809794 -0.032729805 -0.044990573 0.13631707 -0.14562571 -0.19119217 0.031048028 0.12087765
-0.18487146 -0.16299576 -0.09175694 0.24264851 -0.14415127 0.008646667 0.19382548 -0.13187021
-0.116045386 -0.11034933 0.18832582 -0.094692916 0.07352784 -0.008458972 0.0055305064 -0.14179477
0.37245694 0.5205852 0.21689062 0.0762516 0.29075262 0.14765841 0.26310968 -0.041888297
0.07908639 -0.12907751 0.56688404 -0.35397786 -0.3936384 0.401029 0.41696495 0.3930379
0.48197415 -0.19597065 0.13483012 -0.0068649054 -0.08952378 0.3198647 -1.6122987 0.6547924
0.061260134 0.41308212 0.48572755 0.34008956 0.45832002 -0.8701837 -0.25784838 -0.7417501
-0.014736891 -0.20448142 0.22782052 0.17507836 -0.16649848 0.0960508 -0.04835418 -0.11350441
0.23543397 -0.13672942 -0.04318723 0.12496662 -0.076357424 0.24579403 -0.18145075 0.026096046
-0.101270795 0.09735891 -0.0015210211 -0.2059564 -0.24904743 0.031114668 0.2024728 -0.24753678
0.11260566 -0.02293241 -0.17754564 0.0960896 0.037870795 -0.07633358 -0.23310772 -0.07696247
-0.28763178 0.13568205 -0.15307477 -0.082006454 0.07610455 0.20824596 -0.13422729 0.27429843
-0.02619633 0.3800997 0.14571446 0.25324032 0.32288325 0.18962489 -0.04481259 -0.1998286
-0.022472382 -0.20758292 0.103654325 -0.00423944 -0.09672361 0.03767008 0.09248224 -0.22334658
0.16374487 0.20602489 0.10457534 -0.15746352 -0.056303024 0.015663832 -0.10499816 -0.02690092
0.1137701 -0.069786765 -0.09620701 -0.1506069 0.19122837 -0.19239306 -0.06663097 -0.018590655
0.047493637 -0.089282244 -0.21348216 0.07879993 -0.106039405 -0.05708984 -0.1565057 -0.033788428
0.22630146 -0.23329313 -0.1745398 -0.14460242 0.17244445 -0.05099182 -0.06861922 0.044002157
0.07341647 -0.21990594 -0.09543931 0.10044909 0.06363768 -0.22720894 0.19130242 -0.20752922
0.52650607 0.5253886 -0.09360854 0.35685205 0.5411145 0.46405503 0.17086816 -0.11649583
-0.17457512 -0.26751244 0.12193544 -0.42645213 -0.05225811 0.2621806 0.21217051 0.17894843

fc2.bias f4 [32]
00000000: 4d88 84be 470a 403e 8841 9e3e 6830 773c
00000010: 175c 963e 7824 433c e416 e0bd 4ef3 f63e
00000020: 239d d83d cc03 7bbe d0cc 0bbe af01 cdbc
00000030: c962 01bd 22e3 163d 8f5e 84be 1fa1 d53e
00000040: 8a92 073f 4894 fabd 1a0f 123f 4de7 da3e
00000050: 20a3 f1bd 8fe9 c3bd fc86 bd3e 2bf2 66bd
00000060: 83a3 9b3e 8b8c 123e c452 3f3e ff4c c73d
00000070: 4883 3fbe 6cb2 503e 608f 1f3d 9851 173e
-0.2588524 0.1875392 0.3090937 0.015087225 0.29367134 0.01191055 -0.10941866 0.48232502
0.105768465 -0.24513167 -0.13652349 -0.025025217 -0.03158835 0.036837704 -0.25853392 0.41724488
0.52957976 -0.12235314 0.57054293 0.42754593 -0.11798692 -0.09566032 0.37017047 -0.056383293
0.30398187 0.14311425 0.18683916 0.09731483 -0.18702424 0.20380563 0.038955092 0.1477722

fc3.weight f4 [1, 32]
00000000: 1c73 28bf 40b8 e93e 433c d83e 07fe b7bc
00000010: fb29 f43e 46d9 a9bc 6df3 283e 21a1 ca3e
00000020: 251a e6be dade f63d 13fa acbd e52b 3ebe
00000030: 0d57 91bd 165a a5bd ef4e e53c b3fe 0f3f
00000040: b0ac cc3e 1a6c a03d dc32 e8be 73d9 cb3e
00000050: cec0 63be e1b7 da3d e576 d23e ed4e e53d
00000060: 34d3 053f a73d 12bf f29e 153f 6d12 19bf
00000070: baaa b2be cd02 033f 4dc4 02bf 14b0 df3e
-0.6580064 0.45648384 0.42233476 -0.022459997 0.4768828 -0.020733487 0.1649911 0.39576057
-0.44941822 0.12054224 -0.08446135 -0.18571432 -0.07096682 -0.08073823 0.02799174 0.56248015
0.399755 0.07833119 -0.45351303 0.39814338 -0.22241518 0.10679603 0.41106334 0.111966945
0.52275395 -0.57125324 0.58445656 -0.5979374 -0.3489588 0.5117615 -0.5108078 0.43689024
