linear regression/model/model.pkl (torch, 5015 bytes, 5 tensors)

weight f4 [16, 1]
0	0x3f3e4e6b	0.74338406
1	0x3f8a990e	1.0827959
2	0x3f6f8dad	0.93575555
3	0xbe5d64a8	-0.21620429
4	0xbdb7e8ff	-0.08979987
5	0x3f98eca3	1.1947216
6	0xbf445e1b	-0.76706094
7	0x3f83cc5f	1.0296744
8	0xbde87430	-0.11350286
9	0x3f5c6684	0.86093926
10	0xbf815525	-1.0104109
11	0x3f96cbd7	1.1780957
12	0xbf999651	-1.1998998
13	0x3efc3547	0.49259397
14	0xbed85496	-0.42252034
15	0x3f06210b	0.5239417

bias f4 [16]
0	0x3e8e3863	0.27777395
1	0x3eca6d0c	0.3953632
2	0x3f3ede9f	0.7455844
3	0xbf6ac442	-0.91705716
4	0x3f41bfcd	0.7568329
5	0x3dae9c32	0.08525886
6	0xbe912881	-0.28351215
7	0x3f963227	1.1734055
8	0xbf2bd78a	-0.6712576
9	0x3f3300b1	0.6992293
10	0x3e950809	0.29107693
11	0x3f2a0eea	0.6642901
12	0xbda42ced	-0.080163814
13	0x3fb01c42	1.3758624
14	0x3fa8d165	1.3188902
15	0x3fbb5417	1.4635037

weight f4 [32, 16]
0	0x3f004c02	0.5011598
1	0x3eb48d1f	0.35263917
2	0x3efb9af9	0.49141672
3	0xbdf9a868	-0.12190324
4	0x3e949c88	0.29025674
5	0x3ed7053e	0.41996187
6	0xbf32b5ed	-0.69808847
7	0x3f0653c7	0.52471584
8	0x3d99d8a0	0.07512021
9	0x3e63ef30	0.22259212
10	0xbe20c5ec	-0.15700501
11	0x3ed05e07	0.40696737
12	0x3d9ce6e2	0.07661225
13	0x3ee75861	0.45184615
14	0x3ea19d7b	0.3156546
15	0x3eff3967	0.49848482
16	0x3e3d34d4	0.18477184
17	0xbe671218	-0.22565496
18	0xbd8134b8	-0.063088834
19	0x3e3f98de	0.18710658
20	0xbcb3772f	-0.021907417
21	0xbd133f92	-0.035949297
22	0x3e708126	0.23486766
23	0x3df4e000	0.11956787
24	0x3e6fcc8c	0.23417872
25	0xbdcc9694	-0.09989658
26	0xbd7a7c90	-0.06115395
27	0x3e0b6adf	0.13614987
28	0xbded0ec4	-0.11575082
29	0xbd1d1874	-0.0383534
30	0xbe8ac489	-0.2710307
31	0x3cecbea0	0.02889949
32	0x3ef61d0f	0.48069045
33	0x3ec380a6	0.38184088
34	0x3ea6ff65	0.32616726
35	0x3e4f971e	0.2027249
36	0x3f151c2f	0.5824613
37	0x3d24aaa9	0.040201817
38	0xbf49ebae	-0.78875244
39	0x3ed257cb	0.41082606
40	0xbe51cf8e	-0.20489332
41	0x3f168335	0.58793956
42	0xbd091c12	-0.033474036
43	0x3e30ad2f	0.17253564
44	0xbdbfbcb5	-0.09362165
45	0x3de7deae	0.1132177
46	0x3eef9805	0.4679567
47	0x3e61f422	0.22065786
48	0x3ecd299d	0.4007081
49	0x3d50516b	0.050858896
50	0x3e16c484	0.14723402
51	0xbda1d9ec	-0.079028934
52	0x3ecc7ab3	0.39937362
53	0x3e8df53e	0.27726167
54	0xbf1f426c	-0.62210727
55	0x3de647d6	0.1124417
56	0x3cd18270	0.025574893
57	0x3ed42d7f	0.4144096
58	0x3e01f1ab	0.12689845
59	0x3e9ae300	0.30251312
60	0xbdb8145b	-0.089882575
61	0x3ef2597b	0.47333893
62	0x3d74a958	0.05973181
63	0x3ebb915b	0.36634335
64	0x3e5edb90	0.21763444
65	0x3d9f7162	0.07785298
66	0x3eb7a203	0.35865793
67	0x3d2c3e00	0.042051315
68	0x3ed30b3d	0.41219512
69	0x3d48db4f	0.049037274
70	0xbf2a9f4e	-0.6664933
71	0x3e664ebb	0.22490971
72	0xbd8b8128	-0.06811744
73	0x3ed3759c	0.41300666
74	0xbe741ee1	-0.23839904
75	0x3eba3bca	0.3637374
76	0x3ddfb9cf	0.10924112
77	0x3efcf615	0.49406496
78	0x3eb99473	0.3624607
79	0x3ec3ae3f	0.38218877
80	0x3ecfbb15	0.4057242
81	0x3e1266ab	0.14296977
82	0x3dd2fa45	0.103016414
83	0x3dbb441c	0.0914385
84	0x3f037b4c	0.5136001
85	0x3d74a6a2	0.059729226
86	0xbee2a12b	-0.44263586
87	0x3e0af328	0.13569319
88	0x3e7a2f20	0.2443204
89	0x3eef4a12	0.467362
90	0xbe4309da	-0.19046727
91	0x3efea5e4	0.4973594
92	0xbd848b87	-0.06471925
93	0x3ed00463	0.40628347
94	0x3eb66d86	0.35630435
95	0x3ee1cc36	0.44101113
96	0x3e739282	0.23786357
97	0x3db35df6	0.08758156
98	0x3e588a69	0.2114655
99	0xbbdc8400	-0.006729603
100	0x3df492b9	0.119420476
101	0x3eddf72b	0.43352637
102	0xbed73882	-0.420353
103	0x3e42922a	0.1900107
104	0x3dd36dd0	0.103236794
105	0x3e29931b	0.16560023
106	0x3d9bc832	0.076065436
107	0x3ea4162c	0.32048166
108	0xbea7fc4d	-0.32809678
109	0x3f0ff8c6	0.56238973
110	0x3f07a887	0.5299153
111	0x3e8c2420	0.2737131
112	0x3e7a88be	0.24466226
113	0xbdd9ef70	-0.10641372
114	0x3d8a354c	0.06748447
115	0xbc0a7880	-0.008451581
116	0xbe60e09b	-0.2196068
117	0x3e0acc5e	0.13554522
118	0xbd1ca456	-0.03824266
119	0xbe1e9a98	-0.1548866
120	0xbe6c3aa6	-0.23069248
121	0x399d2800	0.00029975176
122	0x3d451965	0.04811992
123	0x3e38ab90	0.18034196
124	0xbe217485	-0.15767105
125	0xbe004510	-0.12526345
126	0x3e3473ac	0.1762225
127	0xbe7d682c	-0.2474677
128	0xbe68fb74	-0.22752172
129	0x3e30509c	0.1721825
130	0xbeb34af8	-0.35018134
131	0xbe264290	-0.16236329
132	0x3e638061	0.22216941
133	0x3b93bac0	0.0045083463
134	0x3f3f5bb1	0.74749285
135	0xbf5fb83f	-0.8739051
136	0xbe2c742e	-0.16841194
137	0xbf150648	-0.5821271
138	0x3ea61e09	0.3244479
139	0xbea4b8dd	-0.3217229
140	0x3f2cd281	0.67508703
141	0xbfa75c2b	-1.3075002
142	0x3ea7b0bc	0.32752025
143	0xbfbcabe2	-1.4739954
144	0x3e59c02a	0.21264711
145	0x3e07e0a2	0.13269284
146	0xbf352b57	-0.70769256
147	0xbddcb238	-0.1077618
148	0xba6c3873	-0.0009011097
149	0xbe685c02	-0.22691348
150	0x3f4525ae	0.7701062
151	0xbf4750a8	-0.77857447
152	0xbd84f494	-0.06491962
153	0xbf1e58ef	-0.6185445
154	0x3f2bd24b	0.67117757
155	0xbe0ac375	-0.13551123
156	0x3f3caf54	0.7370503
157	0xbf7e107f	-0.9924392
158	0x3ebfb691	0.37443975
159	0xbf848033	-1.0351623
160	0x3db748e8	0.08949453
161	0xbdc11ca0	-0.09429288
162	0xbdb35aac	-0.08757529
163	0xbe4198ea	-0.18905988
164	0x3e0ad6aa	0.1355845
165	0xbd09e1b8	-0.033662528
166	0x3e200e1a	0.1563038
167	0xbe6dc752	-0.23220566
168	0xbe1c2d24	-0.15251595
169	0xbe02e348	-0.12782013
170	0xbd723d10	-0.059140265
171	0x3e0a6f46	0.1351901
172	0xbcc75750	-0.024333626
173	0xbe069092	-0.13141087
174	0xbe29a4a4	-0.16566712
175	0xbe3773f4	-0.17915326
176	0x3f05de42	0.52292264
177	0x3ed97459	0.4247158
178	0x3e8bb327	0.2728512
179	0xbe0a99ba	-0.13535205
180	0x3edc04b6	0.42972344
181	0x3ed2c3d6	0.41165036
182	0xbeee9ea1	-0.466054
183	0x3f12ab71	0.5729285
184	0xbe2b8990	-0.16751695
185	0x3db251fe	0.08707045
186	0xbdb8cc5e	-0.09023355
187	0x3e38ff13	0.18066053
188	0x3cd4b133	0.025963401
189	0x3ec6aa12	0.38801628
190	0x3e490bcc	0.19633406
191	0x3e5d76cd	0.2162735
192	0x3e9c603e	0.30542177
193	0x3ebbe212	0.36695915
194	0x3ea398f0	0.3195262
195	0xbdbb1208	-0.091342986
196	0x3e93a52a	0.28836948
197	0x3e557517	0.20845447
198	0xbf2ffa3b	-0.68741196
199	0x3e6f16af	0.23348497
200	0x3dd6a530	0.10480726
201	0x3e57c530	0.21071315
202	0xbd591ca6	-0.053005837
203	0x3ee9bb2c	0.45650613
204	0xbdb57172	-0.088595286
205	0x3ef02940	0.4690647
206	0x3ec30365	0.38088527
207	0x3ecf0019	0.40429762
208	0xbe3d4e60	-0.18486929
209	0xbe7f90ba	-0.24957553
210	0x3de07b28	0.1096099
211	0xbe7aca18	-0.24491155
212	0xbe48806c	-0.19580239
213	0x3daeb83c	0.08531234
214	0x3db212a8	0.08694965
215	0xbe29437a	-0.16529647
216	0x3e756852	0.23965576
217	0xbe49b3cc	-0.19697493
218	0xbe5989fc	-0.21244043
219	0xbe594b3a	-0.21220103
220	0xbc086740	-0.008325398
221	0x3e3066ae	0.17226669
222	0xbe2e8098	-0.17041242
223	0x3e656a78	0.22403896
224	0xbe2529dc	-0.1612925
225	0xbe17a858	-0.14810312
226	0xbd90280c	-0.07038888
227	0x3c46e280	0.012138963
228	0xbdafdb84	-0.08586791
229	0x3da00d18	0.078149974
230	0x3e77cef6	0.24200043
231	0x3d3c3ce8	0.045956522
232	0x3c336d40	0.01095134
233	0xbe07d224	-0.13263756
234	0xbdedfed0	-0.11620867
235	0xbe3abd88	-0.18236363
236	0xbe1f209a	-0.1553978
237	0x3db0fcc8	0.08641964
238	0xbe2eddd0	-0.17076802
239	0x3e01f040	0.12689304
240	0xbe48f292	-0.19623783
241	0xbe0f8bb9	-0.14018144
242	0xbb7fa727	-0.0039009543
243	0x3d6c8e28	0.05775276
244	0x3de4bae2	0.111684576
245	0xbe445381	-0.19172479
246	0x3da95fe4	0.08270243
247	0x3e09d6ae	0.134608
248	0x3c781ca0	0.0151435435
249	0x3d3982c5	0.045290727
250	0xbdf2890e	-0.11842547
251	0xbe8e1d6e	-0.27756828
252	0xbe580706	-0.21096429
253	0xbeaa1ea0	-0.3322649
254	0x3e162c51	0.14665343
255	0x3df09d28	0.11748725

bias f4 [32]
0	0x3ee740f7	0.45166752
1	0xbd9b6c52	-0.0758902
2	0x3df57644	0.11985448
3	0x3f0104e2	0.50398076
4	0x3e9afcff	0.30271146
5	0x3e605d3f	0.2191057
6	0x3e3166a0	0.17324305
7	0xbd8cb4b4	-0.06870404
8	0xbe5e0b77	-0.21684061
9	0x3d307356	0.043078743
10	0x3dafb37c	0.08579156
11	0x3e0e026e	0.13868114
12	0x3efb2ec0	0.49059105
13	0xbde7ec34	-0.11324349
14	0xbce4c800	-0.027927399
15	0xbd06e5df	-0.032934066
16	0xbd850bbc	-0.06496379
17	0x3c456c02	0.012049677
18	0x3e42bf92	0.19018391
19	0x3ee7e965	0.45295253
20	0x3e28e0f0	0.16492057
21	0xbe194e7c	-0.14971346
22	0x3e13f37c	0.1444835
23	0x3e20240a	0.15638748
24	0xbe769178	-0.2407893
25	0xbe573223	-0.2101522
26	0x3e117a9b	0.14206927
27	0x3dd5894e	0.104265794
28	0xbdcb77d7	-0.09934967
29	0xbcb5918f	-0.022164134
30	0xbdda07db	-0.106460296
31	0x3cfd1ac0	0.030896544

weight f4 [1, 32]
0	0x3e8a5f10	0.27025652
1	0xbdf6fc8f	-0.120598905
2	0x3ed268b7	0.41095516
3	0x3edaff6e	0.42773002
4	0x3e9c4f42	0.3052922
5	0x3ed1ffa5	0.41015354
6	0x3ef04a70	0.4693179
7	0xbb17359d	-0.0023072727
8	0xbf248d57	-0.6427817
9	0xbf2adbb8	-0.66741514
10	0x3dabf7ca	0.083968714
11	0x3ec2e91f	0.38068482
12	0x3ea82275	0.3283879
13	0xbcf35d38	-0.029707536
14	0xbda9ac25	-0.08284787
15	0xbd67f638	-0.056631297
16	0xbdaccee9	-0.084379025
17	0xbd1203ae	-0.03564804
18	0x3ecdf445	0.40225425
19	0x3e9efe6a	0.31053478
20	0xbdeea4b6	-0.1165251
21	0x3c276fd0	0.010219529
22	0x3eb352fa	0.35024244
23	0xbe85cd6e	-0.26133293
24	0x3e017a4d	0.1264431
25	0xbf049886	-0.5179523
26	0x3ed6d916	0.41962498
27	0xbe34221b	-0.17591135
28	0xbdb538c1	-0.088487156
29	0xbd026ccf	-0.03184205
30	0xbb4532e6	-0.0030090152
31	0xbe1e8bd3	-0.15483026
