linear regression/model/model.pkl (torch, 1631 bytes, 3 tensors)

fc1.weight f4 [16, 1]
0.5827134 0.9106962 0.5593904 0.97735494 0.7371497 0.7855495 0.0027916431 0.825212
0.71818733 0.8932991 0.697787 0.23400831 0.7765294 0.68045497 0.5846055 0.7090484
00000000: b52c 153f 6323 693f 3634 0f3f ef33 7a3f
00000010: d8b5 3c3f c619 493f 00f4 363b 1841 533f
00000020: 20db 373f 40af 643f 2ba2 323f e09f 6f3e
00000030: a1ca 463f 4c32 2e3f b5a8 153f 3284 353f

fc1.bias f4 [16]
1.5488489 2.4186044 1.485671 -0.08868431 1.958776 2.0865588 -0.61139345 0.23839876
1.9070387 2.3727844 1.8533443 -0.7728118 2.061904 1.8070344 1.553057 1.8828876
00000000: ae40 c63f 6aca 1a40 782a be3f 1fa0 b5bd
00000010: 2cb9 fa3f 2e8a 0540 4884 1cbf ce1e 743e
00000020: d819 f43f b3db 1740 633a ed3f fed6 45bf
00000030: 3cf6 0340 e74c e73f 92ca c63f 7602 f13f

fc2.weight f4 [1, 16]
0.7334277 1.0683346 1.2749918 -8.8947025e-05 1.2809974 1.1825808 0.1825332 0.000104077095
1.2737762 1.0646935 1.0593995 0.059990585 1.2114574 1.6232315 1.0555654 1.0513514
00000000: ebc1 3b3f 30bf 883f ee32 a33f 1289 bab8
00000010: b9f7 a33f cf5e 973f fce9 3a3e f743 da38
00000020: 190b a33f e047 883f 679a 873f b0b8 753d
00000030: 0911 9b3f 0dc6 cf3f c41c 873f af92 863f
