linear regression/model/model.pkl (torch, 4951 bytes, 5 tensors)

weight f4 [16, 1]
000000 a1 8b e4 3e 2e 69 b5 3f 5b 2e 2c 3f 42 aa 63 3f
       0.44637778 1.4172723 0.6725823 0.8893167
000010 51 d2 bf 3f 8f 82 95 bf d6 b8 9b 3f 2f a4 88 bf
       1.4986058 -1.1680468 1.2165782 -1.0675105
000020 1b 4f 2f bf 17 98 47 bf e7 d4 1e bf bc 3f 95 3f
       -0.6848008 -0.77966446 -0.62043613 1.1660075
000030 58 0b aa 3f da bc 96 bf 6e ed 17 3f 66 8e 92 bf
       1.3284712 -1.1776383 0.59346664 -1.1449707

bias f4 [16]
000000 51 88 7f 3f d8 9e 87 3f 39 54 bc 3e 61 ad ad 3c
       0.9981738 1.059535 0.36783007 0.021200838
000010 22 ce 73 3f 22 0d 82 3f b9 97 ce be 0b 80 40 bf
       0.9523641 1.0160258 -0.4035013 -0.7519538
000020 5e 6e 92 3e 5a 4f 3e be 4e 15 7d 3f ce ae a9 be
       0.28599828 -0.18584958 0.98860633 -0.33141178
000030 5c b1 9d 3e 29 21 15 3f 67 2d 4a 3f 29 f4 b3 3e
       0.30799377 0.58253723 0.7897553 0.35147217

weight f4 [32, 16]
000000 05 86 2b 3c 66 52 6f be 68 2a d6 3d 08 cf d4 bc
       0.010468964 -0.23371276 0.10457307 -0.025977626
000010 7f 93 81 3d 1c 1c 20 be 6c 93 66 3c 2a ec 52 be
       0.06326961 -0.15635723 0.014073234 -0.20597902
000020 d2 d1 53 be 90 55 cb 3d 22 5c 02 3e f4 58 8f bc
       -0.20685509 0.09928429 0.12730458 -0.01749847
000030 24 df 30 3e a8 68 9a bd 85 98 8e 3c d8 7f c4 bd
       0.17272621 -0.07539493 0.017406711 -0.09594697
000040 70 fa df bd ed c5 3c be 3c 32 ff bd 0c dd 35 3e
       -0.10936439 -0.18434878 -0.12460753 0.17760104
000050 da e9 af bd 2a 87 0e 3c a6 cc 3d 3e e5 27 a0 3d
       -0.085895255 0.008699218 0.18535098 0.07820109
000060 a1 b8 2e be 8c cb f7 3b e6 86 d4 bd 26 80 4a be
       -0.17062618 0.0075621065 -0.10377292 -0.19775447
000070 36 cf 48 3e a2 ec ac 3d 5b dd 6e bd 69 ad 17 3d
       0.19610295 0.084435716 -0.05831657 0.03703061
000080 48 c9 f9 3d 24 e3 11 3f d1 78 0e 3f 03 8a e2 3e
       0.121965945 0.56987214 0.556531 0.4424592
000090 67 3f c7 3e 94 e2 33 3e 66 10 43 3f f3 88 01 3f
       0.3891556 0.17566901 0.761969 0.5059959
0000a0 8d 88 72 3e 05 7c 0b 3f 4b 02 a8 3e 51 cb c5 3e
       0.23684902 0.54486114 0.3281425 0.3863168
0000b0 6f 4c 87 3e 9c c5 9f 3e 49 8b c9 3e 25 9c 1b 3e
       0.26425502 0.3120545 0.3936408 0.15196283
0000c0 e0 41 3f 3d 91 2a 52 3e 60 b2 25 3c 8d 42 5b be
       0.046693683 0.2052405 0.010113329 -0.21412106
0000d0 47 6e 06 be cc 23 05 3c aa ef 1d be 60 be 62 3d
       -0.13128005 0.00812621 -0.15423456 0.055357337
0000e0 e4 11 83 3d 9a ca 39 be be 86 39 3e 8e 28 43 be
       0.06399897 -0.18143693 0.18117806 -0.19058439
0000f0 36 b4 81 bd c3 d1 05 be 9c 78 e1 3b fe 1b 08 be
       -0.06333201 -0.13068299 0.006880833 -0.13291928
000100 81 dd 56 be 69 8d 36 3b a9 c9 58 be e1 24 dd 3d
       -0.20982935 0.0027855283 -0.21170677 0.1079805
000110 af 3b da bc 95 c3 07 be d6 d7 0c 3d b6 11 9e bd
       -0.026639787 -0.13258202 0.034385525 -0.07718222
000120 aa ab bd 3d 01 2b 53 bd 6f 78 cb bd 17 4b 4c 3e
       0.09261258 -0.051554684 -0.0993508 0.1995052
000130 30 03 c5 39 13 7c 20 3e 47 23 34 3d b9 94 e9 3d
       0.00037577143 0.1567233 0.043978956 0.1140532
000140 cc 44 e4 3e b8 fc 7e 3e 53 0e d9 3e 3a c1 4b 3f
       0.44583738 0.24901092 0.4239374 0.79591715
000150 3e 46 21 3f 1d 84 c0 3e b2 6a 2b 3f 06 35 19 3e
       0.62997806 0.37600794 0.6695968 0.14961633
000160 4d 70 2f 3e f9 3d 05 3f 86 04 99 3e 53 fc f5 3e
       0.17132683 0.5204769 0.29886264 0.4804407
000170 e3 4b 8e 3e e2 5d c0 3e 86 90 cb 3e 88 10 00 3f
       0.27792272 0.37571627 0.397587 0.50025225
000180 db e9 d3 3e 96 e9 85 3e e2 e7 b1 3e e3 e3 9e 3e
       0.41389355 0.26154774 0.34747225 0.3103324
000190 49 7c c7 3e f9 e5 bb 3e 13 05 40 3f 22 0b e2 3e
       0.3896201 0.36698893 0.7500774 0.4414912
0001a0 cf 93 24 3e b8 67 bc 3e 13 82 c9 3e cd c8 0e 3f
       0.1607201 0.3679788 0.3935705 0.5577515
0001b0 70 18 27 3f 4f 1e 2a 3d c2 ed e1 3e ec 61 aa 3e
       0.65271664 0.04153281 0.44126707 0.33277833
0001c0 90 7a d8 3c b0 12 29 bd 3c 17 9e 3d 02 d0 0f 3e
       0.02642563 -0.041277587 0.07719275 0.14044192
0001d0 c0 cc ab bd 08 fa 92 bd c0 16 06 bc 28 63 31 bd
       -0.08388662 -0.07176596 -0.008184135 -0.043307453
0001e0 48 c8 ef bd e0 2d 4b 3d 4c b1 7d be 4c aa 23 be
       -0.117081225 0.049604297 -0.24774665 -0.15982932
0001f0 72 46 15 3e 48 ab 4e 3e d2 e8 76 be a8 a6 75 bd
       0.14577654 0.20182526 -0.24112251 -0.05997339
000200 ef f4 33 3e 37 73 0b 3f 64 e4 df 3e 5c 41 4f 3f
       0.17573904 0.5447268 0.43728936 0.80959105
000210 6e b8 f2 3e 44 b6 c5 3e f8 f6 2a 3f 05 1f f0 3e
       0.47406334 0.3861562 0.66783094 0.46898666
000220 30 5f 85 3d 9f 2f 01 3f 73 73 3c 3e df 05 41 3f
       0.06512296 0.5046329 0.18403415 0.75399584
000230 e7 5f f9 3e aa ad 6c 3d 49 3e e0 3e 0e 21 96 3e
       0.4870598 0.057782806 0.4379752 0.29322094
000240 7b 07 e9 3e e2 63 27 3f f9 d5 33 3f 17 9b 9a 3e
       0.4551352 0.65386784 0.7024837 0.3019645
000250 ee c4 15 3f 51 4c a2 3d cc 32 fd 3e 56 fc a4 3e
       0.58503616 0.079247124 0.49452817 0.32223767
000260 fe 36 be 3e ed 95 ef 3e af 81 8f 3e 52 a2 33 3f
       0.3715133 0.46794072 0.28028628 0.70169556
000270 c4 6e bd 3e b8 1a f1 3d 6f c5 19 3e 92 78 1e 3e
       0.3699857 0.11772674 0.15016721 0.15475681
000280 53 5b 92 be 5c c7 49 3e dd ed 86 bc 8a cf 4e bd
       -0.285853 0.19704956 -0.016470844 -0.050490893
000290 21 de 17 bd b0 82 f6 bd ae 2b 93 bd 60 61 46 3c
       -0.037077073 -0.120366454 -0.071860656 0.012108177
0002a0 38 75 17 3d 80 1b 94 3b a7 a0 f8 bd 9f 9c a4 bc
       0.036977023 0.00451988 -0.12140017 -0.020094214
0002b0 6c 59 a5 3d 3c 7f 20 be 0e fa 84 be 20 85 5e 3d
       0.080736965 -0.15673536 -0.25972027 0.054326177
0002c0 b9 59 d7 3e 70 3d 16 3f 85 cc ab 3e c7 b6 99 3e
       0.4206064 0.58687496 0.33554474 0.3002226
0002d0 cb 37 77 3e 7c fb 36 3e 4d 1d db 3e 9e 59 f1 3e
       0.24142377 0.17869371 0.42795792 0.47138685
0002e0 3a f1 8b 3e 80 10 85 3e 01 9e dd 3d 6a 9e f6 3e
       0.2733248 0.2598915 0.108211525 0.48167735
0002f0 c2 11 00 3f 61 96 d9 3d 3a 80 e6 3e 7e a0 45 3e
       0.50027096 0.106243856 0.45019704 0.19299504
000300 b9 4e 29 3b 4f e3 0e 3e 52 9a 0f 3a c9 6a ce 3e
       0.0025834276 0.13953899 0.00054780126 0.40315846
000310 1d ba 39 3d 68 36 ca be af 62 a2 3e d6 df 71 3e
       0.045343507 -0.39494634 0.31715915 0.23620543
000320 44 26 5e be 92 88 13 be f2 58 01 bf 68 8f bf 3d
       -0.21694285 -0.14407566 -0.50526345 0.093535244
000330 5f 3a 5b 3e 5f d2 3b bd 9c 0e 65 bb a4 94 88 be
       0.21408986 -0.045854922 -0.0034951335 -0.26675904
000340 4f 60 d3 3e 2d bf 1b 3f 56 94 2d 3f 88 48 eb 3e
       0.41284415 0.60838586 0.6780447 0.45953774
000350 ee 05 f7 3e c9 df ae 3e 95 4a 12 3f ba ad 04 3e
       0.48246711 0.3415511 0.57145053 0.12956896
000360 35 46 a3 3e 22 b3 e3 3e c2 46 10 3e 5a e5 bf 3e
       0.318895 0.44472605 0.14089492 0.3747967
000370 ff 46 f4 3e 5b 8d 9c 3e a6 e5 6e 3e 60 1b 21 3e
       0.47710416 0.30576596 0.23329791 0.15733099
000380 dc 72 55 3e f7 fa 1e 3f eb da 08 3f 61 46 cb 3e
       0.20844597 0.6210169 0.5345904 0.39702132
000390 aa 4b 1e 3f 89 16 15 3e f4 50 c0 3e b4 f6 ca 3e
       0.61834204 0.14559378 0.37561762 0.39641345
0003a0 28 3a 93 3e f6 63 6e 3d 65 df 86 bc 1a 6b 0f 3f
       0.28755307 0.0582008 -0.016463945 0.560228
0003b0 53 31 42 3f 1b 6b c5 3e 1a 1f 62 3e ae fa 05 3e
       0.7585651 0.38558277 0.22082177 0.13083908
0003c0 88 68 05 be 3c 78 90 bd ec ce cc 3d f8 eb 57 be
       -0.13028157 -0.07054183 0.10000405 -0.21086109
0003d0 22 92 02 be a0 ad 34 3c 98 37 a2 3d 96 d2 04 3e
       -0.12751058 0.011027724 0.0792076 0.12970957
0003e0 e8 3d de 3d 08 cb 3f bd 00 99 48 3c 24 3f f6 3d
       0.108516514 -0.046824485 0.012243509 0.12023762
0003f0 b8 83 fe 3d 40 a0 ef bc 10 a2 89 3d 16 6e 4a be
       0.12427467 -0.029251218 0.06720364 -0.19768557

bias f4 [32]
000000 92 00 cb bd 41 9a 22 be 02 6a af 3d b6 3c 82 be
       -0.09912218 -0.15879156 0.08565141 -0.25436944
000010 2b 64 31 be 79 19 b3 3d da 08 c8 3d 44 01 2c 3e
       -0.17323367 0.08745093 0.09767313 0.16797358
000020 96 56 f2 3e ee b5 b3 3d 31 1b 87 be 95 64 fc 3d
       0.47331685 0.08774935 -0.26387933 0.12323872
000030 e7 e2 4d bd c4 c4 b4 3e a5 06 8e 3d 22 a2 0b be
       -0.05026522 0.3530637 0.06934861 -0.13636068
000040 a4 7a 9b 3e 90 1b a5 3c 92 ca e0 bb 88 30 b8 3e
       0.30367005 0.020154744 -0.0068600858 0.35974526
000050 95 f9 d2 3e 20 5f 32 bd 1b 7c 71 be 7d d4 84 3e
       0.4120604 -0.04354775 -0.23582499 0.25943366
000060 ee 9a 27 be 07 46 04 3f 8d 04 12 3e e4 1d 69 be
       -0.16367695 0.51669353 0.14259548 -0.22765309
000070 15 6e 42 3e 4e 55 b7 3e fe a4 1a be 73 52 78 be
       0.18987305 0.3580727 -0.15102002 -0.24250202

weight f4 [1, 32]
000000 e9 0b 8d bc d5 66 0a bd 04 e3 1f 3f 9b 8c 13 be
       -0.017217593 -0.033789475 0.62455773 -0.14409105
000010 2b f7 c2 bd 06 7a 02 3f 3b 60 0f 3f ed 2c 33 3e
       -0.095198 0.50967443 0.5600621 0.17497607
000020 4e 9b f0 3e c5 87 dc 3e 4c 75 27 bd a9 85 d5 3e
       0.46993488 0.43072334 -0.040883347 0.41703537
000030 95 06 1f 3e a0 4c ff 3e 04 bf 07 3f 98 2b 87 3c
       0.15529855 0.49863148 0.5302584 0.01650028
000040 45 1c 0f 3f 2d 8f 0c bd ba ee 02 be 55 5a fc 3e
       0.5590251 -0.03431623 -0.1278638 0.49287668
000050 1d 49 05 3f 14 c6 3e 3d 40 c3 f1 3b b1 61 b6 3e
       0.52064687 0.04657562 0.007378012 0.35621408
000060 b6 77 d3 3e f0 9c ef 3e 8b f7 0b 3f d7 b3 e1 3e
       0.4130227 0.4679942 0.54674596 0.4408252
000070 1a 71 0e 3f f7 e9 e7 3e cf 9c d9 bd fc c4 e4 bc
       0.5564133 0.4529569 -0.10625612 -0.02792596
