linear regression/model/model.pkl (torch, 1631 bytes, 3 tensors)

fc1.weight f4 [16, 1]
0	0x3f818b2d	1.0120598
1	0x40355927	2.8335664
2	0x402222e7	2.5333803
3	0x3fd08fc2	1.6293871
4	0xc03c3e7d	-2.941314
5	0x4053894a	3.3052545
6	0xc052aa58	-3.291647
7	0xba07fed4	-0.00051878137
8	0xc041cb54	-3.0280352
9	0xbe5c2a78	-0.21500576
10	0xc013ab0b	-2.3073146
11	0x4027d1ad	2.6221726
12	0xc036e1f7	-2.8575418
13	0x3f89974f	1.0749301
14	0x3f94a9e0	1.1614342
15	0xc0403095	-3.0029652

fc1.bias f4 [16]
0	0x3f8e1bda	1.110225
1	0x3ded9472	0.11600579
2	0x400a9493	2.1653183
3	0x3fda4521	1.7052346
4	0xc0903d43	-4.507478
5	0xc071b2f0	-3.7765465
6	0xbfedc4b9	-1.857566
7	0xbcb099f5	-0.021557787
8	0x3fb9e5bc	1.4523234
9	0xbf373c00	-0.7157593
10	0xc08e80b5	-4.4532113
11	0xc094577a	-4.6356783
12	0x3e5e1e00	0.21691132
13	0x3f973100	1.1811829
14	0x3f9fcf8f	1.2485217
15	0x3ff04f4d	1.8774201

fc2.weight f4 [1, 16]
0	0x3f6bf1eb	0.9216601
1	0x40187459	2.3821013
2	0x3fc9f5ae	1.57781
3	0x3fbf8399	1.4962035
4	0x4078d272	3.8878446
5	0x4081db27	4.058002
6	0x4034459d	2.8167489
7	0xbd192eaf	-0.037398037
8	0x3fd77fce	1.6835878
9	0x3d5aa140	0.053376436
10	0x40824cf2	4.0718927
11	0x40a8e663	5.2781234
12	0x3ffc7bf4	1.9725327
13	0x3f4460e9	0.76710373
14	0x3f877bfd	1.0584713
15	0x3fcb13ba	1.5865395
