linear regression/model/model.pkl (torch, 4951 bytes, 5 tensors)

weight f4 [16, 1]
0	0x3e1c1aff	0.15244673
1	0xbd9166e0	-0.070997
2	0x3f5d14f8	0.8636012
3	0x3e91bfa2	0.28466517
4	0xbdd87a76	-0.105702326
5	0x3f9ba76c	1.2160468
6	0x3ed5a9b2	0.4173103
7	0xbfa202ec	-1.2657142
8	0xbf8f771a	-1.1208222
9	0x3f86b4cf	1.0523928
10	0x3eee4884	0.465397
11	0x3de1b490	0.11020768
12	0xbf7cb6d2	-0.9871646
13	0xbe244c13	-0.16044645
14	0x3f85b571	1.0445997
15	0x3ef58c55	0.47958627

bias f4 [16]
0	0x3f026cd0	0.50947285
1	0xbf63d7fa	-0.8900143
2	0x3e3f6ffa	0.1869506
3	0x3f99f15c	1.2026782
4	0xbebfcdbb	-0.37461647
5	0x3facfebe	1.3515241
6	0x3fb28745	1.3947531
7	0x3e784f4d	0.24249001
8	0xbee389a8	-0.4444096
9	0xbed6cf99	-0.4195526
10	0x3e392a28	0.18082488
11	0xbf6b86b2	-0.92002404
12	0xbed377c3	-0.41302308
13	0x3f9b0452	1.2110693
14	0x3edd8641	0.4326649
15	0x3f2c742d	0.6736477

weight f4 [32, 16]
0	0x3e0f49e8	0.13993037
1	0xbd92abf8	-0.07161707
2	0x3de76a74	0.11299601
3	0xbe0a6522	-0.13515142
4	0x3e15bd62	0.14623025
5	0xbe31153a	-0.17293254
6	0xbddb1900	-0.10698128
7	0xbdc12ff8	-0.094329774
8	0x3db493d4	0.088172585
9	0x3c9691f0	0.018380135
10	0xbdcc65a8	-0.09980327
11	0x3c5b2580	0.01337564
12	0xbdd54b5c	-0.10414764
13	0xbcafd110	-0.021461993
14	0xbd318cb0	-0.04334706
15	0x3e41a5b4	0.18910867
16	0xbe09e5a5	-0.13466509
17	0xbe307dac	-0.1723544
18	0x3bbcd989	0.005763237
19	0xbe282c56	-0.16423163
20	0xbe0605b2	-0.1308811
21	0xbe5e3938	-0.21701515
22	0x3e52e3e7	0.2059475
23	0x3d855b68	0.06511575
24	0xbe095f15	-0.13415177
25	0x3d23b0d1	0.039963547
26	0xbe5e11f1	-0.21686532
27	0xbdf68c68	-0.12038499
28	0x3d28d3d8	0.041217655
29	0xbe239cbb	-0.15977757
30	0x3e2e5eac	0.17028302
31	0xbe2343a0	-0.15943766
32	0x3e00a815	0.12564118
33	0xbe7a39a6	-0.24436054
34	0x3ea2c505	0.3179094
35	0x3e6b564b	0.22982137
36	0x3d2a446c	0.04156916
37	0x3f067606	0.5252384
38	0x3e846c07	0.25863668
39	0x3e500ba8	0.20316947
40	0xbeab48ab	-0.3345388
41	0x3d3e57a3	0.046470296
42	0x3e6fcfea	0.23419157
43	0xbdcd0bb0	-0.10011995
44	0xbec1a77e	-0.378231
45	0x3f0cdda1	0.5502568
46	0x3eb2c750	0.34917688
47	0x3e4ccc7d	0.19999881
48	0x3e6ccac9	0.23124231
49	0xbdfe450c	-0.124155134
50	0x3df86585	0.12128738
51	0x3dc7cfcd	0.09756432
52	0x3dca7e23	0.0988734
53	0x3ead5851	0.33856443
54	0x3f08b6ed	0.5340412
55	0x3d4dc56b	0.0502371
56	0xbd420859	-0.047371242
57	0x3defe557	0.11713665
58	0x3efb2844	0.49054158
59	0x3e43a7ce	0.19106981
60	0xbe8072b5	-0.25087515
61	0x3e5ee011	0.21765162
62	0x3ea1912b	0.31556067
63	0x3e75e0fb	0.24011604
64	0x3ee3967c	0.44450748
65	0x3e7492ac	0.23884076
66	0x3f01e043	0.5073282
67	0x3edffed0	0.43749094
68	0x3e58fd1f	0.21190308
69	0x3d6f60f1	0.05844206
70	0x3e9c6340	0.30544472
71	0x3ba0279f	0.0048875357
72	0xbea3a55d	-0.319621
73	0x3c9dadef	0.019247977
74	0x3e7e4d6c	0.24834222
75	0x3c0c4060	0.00856027
76	0xbdc50385	-0.09619812
77	0x3edafaca	0.42769462
78	0x3e654960	0.22391272
79	0x3e211443	0.15730385
80	0x3eee9890	0.4660077
81	0x3e07746a	0.13228002
82	0x3f0657fa	0.5247799
83	0x3f0dbe17	0.5536818
84	0x3e732fe9	0.23748745
85	0x3ecf2e81	0.40465167
86	0x3ef13b03	0.47115335
87	0x3e7543ec	0.23951691
88	0xbdcb9477	-0.09940427
89	0xbbef9bb2	-0.0073122615
90	0x3ee04087	0.4379923
91	0xbe563cb6	-0.20921597
92	0xbec5005f	-0.38476846
93	0x3de2105b	0.11038276
94	0x3e02c777	0.12771402
95	0x3e9be7f3	0.304504
96	0xbe8f9694	-0.2804457
97	0xbdf2b3b4	-0.11850682
98	0xbfadd4be	-1.3580549
99	0x3c32553f	0.010884582
100	0x3da9110a	0.08255203
101	0x3c37ba1b	0.011213805
102	0x3e049e1f	0.12950943
103	0x3ee1ecf3	0.4412609
104	0x3eabd26f	0.33558986
105	0xbe1bc2b0	-0.15210986
106	0xbfe24d32	-1.7679808
107	0x3e3bd420	0.18342638
108	0x3f29a19c	0.6626222
109	0x3e886f02	0.26647192
110	0xbfd6c011	-1.6777364
111	0xbd7bf807	-0.061515834
112	0x3eac3b4c	0.3363899
113	0xbd91cc80	-0.071190834
114	0x3f094f8f	0.5363702
115	0x3ea9ee61	0.3318968
116	0xbd3de84d	-0.046364117
117	0x3f09b2ca	0.53788435
118	0x3ec9f196	0.39442128
119	0xbdddc860	-0.10829234
120	0xbe255b9d	-0.16148229
121	0x3e463d85	0.19359405
122	0x3e51ccaa	0.2048823
123	0x3e48bba8	0.19602835
124	0xbe54e6ab	-0.20791118
125	0x3f18af2f	0.5964231
126	0x3e4e54d5	0.20149548
127	0x3ea5c8ba	0.32379705
128	0x3ecde1e4	0.40211403
129	0x3ddb0768	0.10694772
130	0x3eab7113	0.33484706
131	0x3e9501f0	0.2910304
132	0x3e4b2a3a	0.19840327
133	0x3e9ab4f0	0.3021617
134	0x3ed017ce	0.40643162
135	0x3d9bee8a	0.07613857
136	0xbdb0f0fb	-0.086397134
137	0x3dc28961	0.09498859
138	0x3ea4e2cf	0.3220429
139	0x3ddeb28c	0.10873899
140	0xbe2e54df	-0.17024563
141	0x3e3270f0	0.17425895
142	0x3e8dc473	0.2768894
143	0x3e263104	0.16229635
144	0x3d22d10c	0.039750144
145	0x3dc2b500	0.09507179
146	0x3d09bb68	0.03362599
147	0x3e22f162	0.15912393
148	0x3da74e10	0.08169186
149	0x3b7e1e82	0.0038775508
150	0xbd178871	-0.036995355
151	0xbd316d1f	-0.043316957
152	0xbb37ea80	-0.0028063357
153	0xbe6ffe8c	-0.23436946
154	0x3dda2060	0.10650706
155	0x3daaf720	0.083479166
156	0xbe50d4e4	-0.20393711
157	0xbdb36d5c	-0.08761093
158	0xbe4a0116	-0.19726977
159	0xbd591b08	-0.053004295
160	0xbfc3eab9	-1.5306007
161	0xbe3f41d8	-0.18677461
162	0x3e65f334	0.22456056
163	0xbf01ca51	-0.50699335
164	0xbc01c2b2	-0.007919954
165	0xbf29837a	-0.6621624
166	0xbf2d8535	-0.6778138
167	0x3ed5055e	0.41605657
168	0x3ea427b6	0.32061547
169	0x3e225fc2	0.15856841
170	0x3d989e28	0.07452041
171	0x3d8aeba8	0.06783229
172	0x3f0a8527	0.54109424
173	0xbe676cc7	-0.22600089
174	0xbc32dfe0	-0.010917634
175	0xbf1d4a7a	-0.6144177
176	0x3eb82d4b	0.35972056
177	0xbe1b7e7e	-0.15184972
178	0x3e83e54a	0.2576087
179	0x3e9fbd13	0.3119894
180	0xbdf4e0a6	-0.11956911
181	0x3ed189aa	0.40925342
182	0x3e3389ba	0.17533007
183	0x3e0b7cdb	0.13621847
184	0xbe78b406	-0.24287423
185	0x3eaf7f3e	0.34276766
186	0x3e2ad989	0.16684546
187	0x3d96c920	0.0736258
188	0xbe6e6c14	-0.23283416
189	0x3e7f87f0	0.249542
190	0x3e5e8934	0.21732026
191	0x3e8618c1	0.2619076
192	0xbe825aff	-0.2546005
193	0xbe18e542	-0.14931205
194	0xbdab7a87	-0.083729796
195	0x3d22a47b	0.039707642
196	0xbd597ec8	-0.053099424
197	0xbe79fce0	-0.2441287
198	0x3e974953	0.2954813
199	0x3ce4e371	0.027940484
200	0xbe07255d	-0.13197847
201	0xbdc404a4	-0.09571198
202	0xbcba23ca	-0.022722144
203	0xbdf29114	-0.11844078
204	0x3e90aa83	0.2825509
205	0xbce35656	-0.02775113
206	0xbe4ebc1d	-0.20188947
207	0xbfb38635	-1.4025332
208	0x3e25e7e4	0.1620174
209	0xbd891a78	-0.06694502
210	0xbd990264	-0.07471159
211	0xbe2f1f5a	-0.17101803
212	0xbe0e1d66	-0.13878402
213	0xbd94bcb4	-0.07262555
214	0xbdd1fc94	-0.102532536
215	0xbe2f999c	-0.17148441
216	0x3da0f76c	0.07859692
217	0xbcf448d0	-0.029819876
218	0x3e55cbe4	0.2087856
219	0xbdea1860	-0.114304304
220	0xbe42c644	-0.19020945
221	0xbc85a3c0	-0.016313434
222	0x3dcaedf4	0.09908667
223	0x3e0b116e	0.13580868
224	0x3e9a4cd9	0.30136755
225	0x3de39134	0.1111168
226	0x3f022cb1	0.50849444
227	0x3ee48c2c	0.44638193
228	0x3e6e156b	0.23250358
229	0x3ee83693	0.45354137
230	0x3f0230f1	0.5085593
231	0xbd2ccdf3	-0.042188596
232	0xbe273e1c	-0.16332287
233	0x3e09f264	0.13471371
234	0x3f0f619b	0.5600831
235	0x3df37e3c	0.11889312
236	0xbda4a1ed	-0.080386974
237	0x3e9fcb82	0.31209952
238	0x3eba798b	0.36420855
239	0x3d64f0f8	0.05589387
240	0xbfc298f9	-1.5202934
241	0xbe555446	-0.20832929
242	0x3e3d80c6	0.18506154
243	0xbf0751c5	-0.52859145
244	0x3df2403c	0.11828658
245	0xbe47f4b8	-0.19526947
246	0xbf200c14	-0.6251843
247	0x3ee4c3d7	0.44680664
248	0x3f24b455	0.64337665
249	0x3d49f1e8	0.049302965
250	0x3d834230	0.06409109
251	0xbda72420	-0.08161187
252	0x3f221f4f	0.63329023
253	0x3d68b9d3	0.05681784
254	0xbe575a24	-0.2103048
255	0xbf78da1b	-0.972078

bias f4 [32]
0	0xbde18320	-0.11011338
1	0x3e28aeb2	0.16472891
2	0x3e8d8c45	0.2764608
3	0x3e89c5cc	0.2690872
4	0x3eee3eaf	0.465322
5	0x3d177c5b	0.03698383
6	0xbdc1bb71	-0.0945958
7	0x3efe1ad3	0.4962984
8	0x3d8fafe3	0.070159696
9	0xbd1d2089	-0.038361106
10	0x3af3b2c4	0.0018592705
11	0x3ebc2c44	0.36752522
12	0xbe01874f	-0.12649272
13	0xbe3ec30e	-0.18629095
14	0x3ea1425b	0.31495938
15	0xbd6dcc58	-0.058056206
16	0xbe23df15	-0.16003068
17	0x3efc0d5c	0.49228942
18	0x3eb4b671	0.35295442
19	0x3db392e8	0.087682545
20	0xbe0e95c6	-0.13924322
21	0x3dd5bb08	0.10436064
22	0x3f000368	0.500052
23	0x3e3c8a12	0.18412045
24	0x3ea747d0	0.32671976
25	0x3b7c26d6	0.0038475296
26	0xbe6a80c5	-0.22900684
27	0x3ec1313e	0.3773288
28	0x3e2f99de	0.1714854
29	0x3efa7014	0.48913634
30	0x3dcf1064	0.10110548
31	0x3ea15a5e	0.31514257

weight f4 [1, 32]
0	0xbe1ea8ba	-0.15494052
1	0xbceb14f9	-0.028696524
2	0x3eb58a4a	0.3545707
3	0x3ed5bed6	0.4174716
4	0x3f039b4f	0.5140886
5	0x3ecc5e92	0.399159
6	0xbf239dee	-0.63912857
7	0x3e98952e	0.29801315
8	0x3eb8435f	0.359889
9	0xbdfe1290	-0.12405884
10	0xbf0f77c0	-0.560421
11	0x3ed1a8ba	0.4094904
12	0xbe83f666	-0.25773925
13	0x3e1ee1c9	0.15515818
14	0x3ed5607c	0.41675174
15	0xbf191e52	-0.5981189
16	0xbdd53065	-0.10409621
17	0x3e8c5b2e	0.27413315
18	0x3e7a0867	0.24417268
19	0xbd1fb61c	-0.038992032
20	0x3d70226c	0.058626577
21	0x3de47ae6	0.111562535
22	0x3ec9ac41	0.39389232
23	0x3dc8f202	0.09811784
24	0x3f04263d	0.51620847
25	0xbf150c88	-0.58222246
26	0xbec62c26	-0.38705558
27	0x3ec56f6c	0.3856157
28	0xbe30edf8	-0.17278278
29	0x3ee28957	0.44245407
30	0xbf19199f	-0.5980472
31	0x3ec1b1de	0.37831014
