linear regression/model/model.pkl (torch, 4951 bytes, 5 tensors)

weight f4 [16, 1]
0	0xbfb4cde3	-1.4125332
1	0x3f75cf67	0.96019596
2	0x3fa0f772	1.2575514
3	0x3f602b0c	0.87565684
4	0x3f9e30e8	1.2358675
5	0x3f72e413	0.94879264
6	0x3f8e8492	1.1134207
7	0xbf690e54	-0.9103749
8	0x3fbf527d	1.4947048
9	0x3f78054a	0.9688307
10	0xbf80c89a	-1.0061219
11	0xbf45744f	-0.771306
12	0x3f31fc05	0.69525176
13	0x3f8a9938	1.0828009
14	0xbe27e783	-0.16396908
15	0x3b9c3c53	0.0047679334

bias f4 [16]
0	0xbf43fd53	-0.7655842
1	0x3f75b3f7	0.9597773
2	0x3f2f289e	0.6842135
3	0xbf363d30	-0.71187115
4	0xbe47153a	-0.19441691
5	0xbf296ffa	-0.6618649
6	0x3f7a3090	0.9773035
7	0x3f8b9192	1.09038
8	0xbf2a4adf	-0.66520494
9	0x3f91aed4	1.1381478
10	0x3f44a700	0.7681732
11	0xbf1a0df2	-0.6017753
12	0x3d973877	0.07383817
13	0x3f466a8a	0.77506316
14	0x3f59844a	0.8496748
15	0x3f78a38d	0.9712456

weight f4 [32, 16]
0	0x3dd21c36	0.10259287
1	0xbd96ae5c	-0.07357475
2	0x3e2cfddf	0.16893719
3	0xbe31cdf8	-0.17363727
4	0xbe4ad8b7	-0.19809233
5	0xbe4ffbc2	-0.20310882
6	0x3e18561b	0.14876597
7	0x3e233c07	0.15940867
8	0xbe7fd3cf	-0.24983142
9	0x3d3944ce	0.045231633
10	0xbe869d0b	-0.2629169
11	0xbda4aa8c	-0.08040342
12	0x3e2af93f	0.16696642
13	0xbe49aec6	-0.19695577
14	0x3e00ffbd	0.12597556
15	0xbd37458c	-0.04474406
16	0x3f0b4300	0.5439911
17	0x3ecdc7c5	0.40191475
18	0x3f042855	0.5162404
19	0x3f03ea0d	0.5152901
20	0x3ee7eacc	0.45296323
21	0x3f14953d	0.5804022
22	0x3ea5647d	0.3230323
23	0x3df47509	0.11936385
24	0x3ec5304d	0.38513413
25	0x3ed7bb0d	0.42134896
26	0x3f12877b	0.57237977
27	0x3f0b6c78	0.54462385
28	0x3f0ea83c	0.55725455
29	0x3ee3ebb3	0.44515762
30	0x3d5dcae4	0.05414857
31	0x3df2bc0d	0.11852274
32	0x3f2c7206	0.67361486
33	0x3f04cacd	0.5187195
34	0x3f1a45ae	0.6026257
35	0x3f7da775	0.99083644
36	0x3f263a9b	0.64933175
37	0x3f50f32d	0.81621057
38	0x3e89ff76	0.26952714
39	0x3e0c8fc8	0.13726723
40	0x3ec1721b	0.37782368
41	0x3e4194ba	0.18904391
42	0x3f01b71e	0.5067004
43	0x3f03a0e7	0.5141739
44	0x3ea242ec	0.31691682
45	0x3ef78c81	0.48349383
46	0x3ea324f5	0.31864133
47	0x3e44af72	0.19207552
48	0x3f027dc9	0.5097318
49	0x3dfa9a9f	0.12236523
50	0x3f00b52d	0.5027645
51	0x3f262ce8	0.6491227
52	0x3f260f60	0.6486721
53	0x3eecebb9	0.46273592
54	0x3ebdf62a	0.3710187
55	0x3e2e2eb1	0.17009999
56	0x3f213259	0.6296745
57	0x3e90a3a5	0.2824985
58	0x3f086f5f	0.5329494
59	0x3f661cfa	0.89887965
60	0x3f2ea8d2	0.6822635
61	0x3f167330	0.5876951
62	0x3d047e1d	0.032346833
63	0x3eb016c9	0.34392384
64	0x3e00e968	0.12589037
65	0xbe14b742	-0.14523032
66	0xbe6edbc0	-0.23326015
67	0x3e76e6f8	0.24111545
68	0x3da63d0c	0.081171125
69	0xbe639f5a	-0.22228757
70	0xbe13e4be	-0.14442727
71	0xbdf95648	-0.1217466
72	0xbe07cb40	-0.13261127
73	0xbe4204a8	-0.18947089
74	0xbc91e8c0	-0.01781118
75	0x3c071880	0.008245587
76	0xbddba284	-0.10724357
77	0xbe4c0f64	-0.19927746
78	0xbe372442	-0.17884925
79	0xbc968390	-0.01837328
80	0x3f482170	0.7817602
81	0x3f0f8fb1	0.5607863
82	0x3efbe253	0.4919611
83	0x3f20a13b	0.6274602
84	0x3f144889	0.5792318
85	0x3ef7b453	0.48379764
86	0x3e55b784	0.20870787
87	0x3ecb52e3	0.39711675
88	0x3f0104d8	0.50398016
89	0x3e9f5e3e	0.3112659
90	0x3e538f7e	0.20660207
91	0x3f28f741	0.6600228
92	0x3f0871b2	0.53298485
93	0x3ed10d04	0.40830243
94	0x3e9af0b2	0.3026176
95	0x3dd45e46	0.10369544
96	0xbd694000	-0.0569458
97	0xbd95e583	-0.073191665
98	0x3d7c3b42	0.06157995
99	0xbe0374d3	-0.12837534
100	0xbe77216b	-0.24133842
101	0xbd35fe40	-0.044431925
102	0x3e206a69	0.15665592
103	0x3e058be1	0.13041641
104	0x3e30f167	0.17279588
105	0x3e38b4a0	0.18037653
106	0xbe335fd4	-0.17517024
107	0xbe087e7b	-0.13329498
108	0x3dcd0858	0.10011357
109	0xbe8f1ebc	-0.27953136
110	0xbe07bb8f	-0.13255142
111	0x3e14281f	0.1446843
112	0x3d75ebc6	0.060039304
113	0x3e3d45fc	0.18483728
114	0x3e1cbebe	0.15307137
115	0x3e04dcae	0.12974808
116	0x3d640c8a	0.05567602
117	0xbd2f80a6	-0.042847298
118	0xbe26ee25	-0.16301782
119	0x3e120377	0.14259134
120	0xbdd3dd67	-0.103449635
121	0x3dab3076	0.083588526
122	0xbde035eb	-0.10947784
123	0xbe07ccce	-0.1326172
124	0x3cb698cf	0.022289662
125	0xbe351a91	-0.17685916
126	0xbd78e41a	-0.06076441
127	0xbe552fc1	-0.20818998
128	0x3f3a0075	0.7265695
129	0x3e1cf267	0.15326844
130	0x3eeba72b	0.46025977
131	0x3f61b323	0.88163966
132	0x3efff818	0.49993968
133	0x3f1dca90	0.6163721
134	0x3e6d7dd8	0.23192537
135	0x3e9484ce	0.29007572
136	0x3effc631	0.49955896
137	0x3edd29c8	0.4319594
138	0x3e0e1b91	0.13877703
139	0x3f72a740	0.94786453
140	0x3ecf38a1	0.40472892
141	0x3e976c2f	0.29574725
142	0x3e36a22d	0.17835303
143	0x3eeb7a9d	0.45991984
144	0x3d224270	0.03961414
145	0x3c8cdf16	0.01719622
146	0xbe8a19a5	-0.2697269
147	0x3e476cc4	0.19475085
148	0xbe549c29	-0.20762695
149	0xbcf756f0	-0.030192822
150	0x3d68c1ee	0.05682557
151	0xbe6e32d4	-0.23261577
152	0xbe81b596	-0.25333852
153	0x3d437850	0.04772216
154	0xbe68a906	-0.22720727
155	0xbdf10d84	-0.11770156
156	0xbdd26198	-0.10272521
157	0x3d5132c5	0.05107381
158	0xbcb2111e	-0.021736678
159	0x3e58191b	0.21103327
160	0x3f029c7f	0.51020044
161	0x3f050b2c	0.5197017
162	0x3ed186d9	0.40923193
163	0x3f513bbf	0.8173179
164	0x3e9542ed	0.29152623
165	0x3f208f8d	0.6271904
166	0x3eab7f6a	0.33495647
167	0x3e338e9e	0.17534873
168	0x3eeba2d3	0.46022663
169	0x3e9dcb86	0.3081934
170	0x3e1293cf	0.14314197
171	0x3f2ff4ab	0.6873271
172	0x3f1bbc80	0.60834503
173	0x3f0c8d59	0.5490318
174	0x3cc7ebee	0.024404492
175	0x3d9e54d6	0.07731025
176	0x3ebb00ad	0.36523953
177	0x3e750b56	0.23930106
178	0x3eada96e	0.33918327
179	0x3f494dc3	0.7863428
180	0x3f00de98	0.5033965
181	0x3f662767	0.89903873
182	0x3ea8b26c	0.32948625
183	0x3ef23b30	0.4731078
184	0x3ef9ca9b	0.48787388
185	0x3ecb136d	0.39663258
186	0x3e83aad0	0.25716257
187	0x3f18873d	0.5958136
188	0x3eb9898b	0.3623775
189	0x3efdc804	0.49566662
190	0x3e9ee2cf	0.31032416
191	0x3e9cc81c	0.3062142
192	0xbe10ee33	-0.14153366
193	0xbe5503a5	-0.20802172
194	0x3df62ecf	0.12020647
195	0xbdfd903c	-0.12381026
196	0xbe7fc12d	-0.24976034
197	0xbe39e9b4	-0.18155557
198	0xbd53ff55	-0.051757175
199	0x3e512857	0.20425545
200	0xbde9d39c	-0.114173144
201	0xbe811f6f	-0.25219294
202	0xbde45835	-0.11149637
203	0x3d4c84f3	0.049931478
204	0xbe595804	-0.21224982
205	0x3ddfe8b7	0.10933059
206	0xbe38fe8d	-0.18065853
207	0x3e56c2a2	0.20972684
208	0x3edf8bf1	0.43661454
209	0x3e6911b1	0.22760655
210	0x3ec1bd24	0.37839615
211	0x3f355be9	0.7084337
212	0x3f118d6c	0.5685642
213	0x3f13b58f	0.5769891
214	0x3eefa2a0	0.4680376
215	0x3dacf452	0.08445038
216	0x3ef35032	0.47522122
217	0x3ec86a51	0.39143613
218	0x3e96a1a5	0.294202
219	0x3f4aab22	0.7916738
220	0x3ec081e2	0.37599093
221	0x3ec3e5f6	0.38261384
222	0x3d2904d5	0.041264374
223	0x3daa8a82	0.083271995
224	0x3f35e93f	0.7105903
225	0x3effdde2	0.4997397
226	0x3eb4a53d	0.35282317
227	0x3f21d221	0.63211256
228	0x3f0c0cb2	0.5470687
229	0x3f425179	0.7590557
230	0x3e8bc55d	0.27299014
231	0x3ecbe529	0.39823273
232	0x3f2fbbcc	0.6864593
233	0x3f013180	0.50466156
234	0x3e402b50	0.18766522
235	0x3f127c66	0.57221067
236	0x3f1a4400	0.6026001
237	0x3de99805	0.114059485
238	0x3e244f93	0.1604598
239	0x3e77e483	0.24208264
240	0x3f2431a0	0.6413822
241	0x3f0a65eb	0.54061764
242	0x3f1cb56c	0.6121433
243	0x3f34dc33	0.706485
244	0x3f2c851b	0.673906
245	0x3f59fadf	0.85148424
246	0x3ee76057	0.4519069
247	0x3e1782cb	0.14795987
248	0x3f37d575	0.71810085
249	0x3dd85544	0.10563138
250	0x3e3d2ed2	0.18474892
251	0x3f7aa2a0	0.97904396
252	0x3f102e1d	0.56320363
253	0x3e93c819	0.288636
254	0x3efbcf91	0.49181798
255	0x3d80c6a4	0.06287888

bias f4 [32]
0	0xbe67d937	-0.22641455
1	0x3ea7718c	0.32703817
2	0x3e81ddf7	0.25364658
3	0x3df6d6c9	0.12052686
4	0x3d8dac6c	0.069176525
5	0x3edc8abc	0.43074596
6	0xbe6c8097	-0.23095928
7	0xbdda619f	-0.10663151
8	0x3db84b9e	0.08998798
9	0x3d6d0fb2	0.057876296
10	0x3ed98d94	0.42490828
11	0x3eab33cd	0.33437958
12	0x3dfd3bda	0.123649314
13	0x3e8fff62	0.2812453
14	0x3d589813	0.052879404
15	0x3ea8717d	0.32899085
16	0x3ea4d66c	0.3219484
17	0x3a072be5	0.0005156382
18	0x3e9dc334	0.3081299
19	0x3e28c988	0.16483128
20	0x3e2bd839	0.16781701
21	0x3d909a86	0.07060723
22	0xbf07f60c	-0.5310981
23	0x3dd57a27	0.10423689
24	0x3e9d0ea3	0.3067523
25	0x3dc418fe	0.095750794
26	0x3e3d0841	0.1846018
27	0x3d8f4712	0.069959775
28	0xbda5e88b	-0.08100995
29	0x3e348718	0.17629659
30	0xbc98ccd9	-0.018652366
31	0x3e01217f	0.12610434

weight f4 [1, 32]
0	0xbded6e39	-0.11593289
1	0x3ef4fb42	0.47847944
2	0x3eefac2b	0.4681104
3	0x3f00d824	0.50329804
4	0x3dc32c86	0.095299765
5	0x3ed76633	0.4207016
6	0xbcc260cd	-0.023727799
7	0xbd2cbbfc	-0.042171463
8	0x3f1756a5	0.59116584
9	0xbda014a5	-0.07816438
10	0x3f02a90c	0.51039195
11	0x3f01e858	0.50745153
12	0xbe302cb2	-0.1720455
13	0x3f0e7562	0.5564786
14	0x3f0c1384	0.5471728
15	0x3ee65ff9	0.44995096
16	0x3ef8a01c	0.48559654
17	0xbdd69d97	-0.104792766
18	0x3f07496a	0.52846396
19	0x3ef4b989	0.47797802
20	0x3ed8302b	0.4222425
21	0xbce2b1db	-0.027672699
22	0x3ecb634c	0.39724195
23	0xbdccb91c	-0.09996244
24	0x3efea25d	0.49733248
25	0x3f05c1c0	0.52248764
26	0x3f04a244	0.518101
27	0xbcbc88c3	-0.023014432
28	0xbd4df419	-0.050281618
29	0xbcee287f	-0.029072044
30	0xbe0dacf5	-0.13835509
31	0xbd863a23	-0.065540574
