Nonlinear regression/model/model.pkl (torch, 32903 bytes, 9 tensors)

weight f4 [10, 1]
000000 9c 1e 81 bf ba 16 46 3f dd 74 81 bf 59 a1 f2 be
       -1.0087466 0.7737843 -1.0113789 -0.47388723
000010 c7 eb 83 3e cc 77 4b be 74 06 3e 3f 2d c2 19 3f
       0.2576582 -0.19869918 0.74228597 0.60061914
000020 eb a2 80 bf ce 55 7f bf
       -1.0049719 -0.997403

bias f4 [10]
000000 40 7d 39 3f b6 50 1c 3f 5b 2d 98 3f 85 91 8b 3f
       0.7245674 0.61060655 1.1888841 1.0903784
000010 13 38 65 3f e2 fa 40 bf 3d ae 97 bf 0e 82 a3 bf
       0.8953869 -0.75382817 -1.1850048 -1.2774065
000020 0b b6 b0 bc 94 bb 2b 3f
       -0.02157118 0.67083097

weight f4 [10, 1]
000000 1a ad 14 be fe 33 4c 3e 83 e1 43 3f da 24 b9 be
       -0.14519158 0.19941708 0.7651598 -0.36160928
000010 20 47 59 3f 2a 09 14 bf 31 8a 5b 3f de 65 4d 3e
       0.84874153 -0.57826483 0.8575774 0.2005839
000020 cf ac 58 bf 46 78 1f bf
       -0.84638685 -0.622929

bias f4 [10]
000000 3b d7 70 bf 64 2c d7 3e 32 85 75 3f a5 d2 12 be
       -0.94078416 0.42026055 0.95906365 -0.14338167
000010 97 91 db be e4 df 85 bf db 8f a8 3e 55 99 90 bf
       -0.42884514 -1.0458951 0.32922253 -1.1296793
000020 54 84 ba bd 9d 42 f7 3e
       -0.09107271 0.4829301

weight f4 [100, 20]
000000 df f7 2c 3e 57 fd 26 3e 5f 6d 3f 3e c8 02 00 3e
       0.1689143 0.16307579 0.18694066 0.12501061
000010 2d 07 1f 3e 01 1a 83 3d 8f 38 0c bd d5 ad 07 be
       0.15530081 0.06401444 -0.034233626 -0.13249905
000020 a7 79 1f be ee ae 63 3e f9 d9 96 bd 66 7b bf 3d
       -0.1557375 0.22234699 -0.07365794 0.09349708
000030 5f 9f cc 3d 78 63 8e be d1 69 3b be 80 33 2c be
       0.09991335 -0.27810264 -0.18302085 -0.1681652
000040 17 37 0e be ca 25 27 3e 22 c3 4d bc f8 72 12 3e
       -0.13888203 0.16323009 -0.01255873 0.1430167
000050 4c 1e 26 3d 01 ec 6f 3d e7 9c e6 bc fe e2 02 be
       0.040556237 0.05857468 -0.028150989 -0.12781903
000060 47 fd bc bd c2 40 96 be 39 d0 b3 bd 6e 66 11 be
       -0.09227996 -0.2934628 -0.0877995 -0.1419923
000070 0e d5 b0 be da 55 f0 bc c5 2c 14 bc 25 a7 b4 bd
       -0.34537548 -0.029337812 -0.009043877 -0.08820943
000080 5c 96 9a 3e 89 1d 96 bc 66 bd 40 3e d6 c5 92 be
       0.3019284 -0.01832463 0.1882225 -0.28666562
000090 e7 09 9b 3e 6d 1f e7 bc 99 27 bd bd 6d e3 32 be
       0.30280992 -0.028213227 -0.09236068 -0.17469569
0000a0 62 3b df bd 25 02 37 be 8a 6a a1 bd 80 70 3d be
       -0.10899998 -0.17871912 -0.07881649 -0.18499947
0000b0 ec 61 7d bd 62 59 9f bd 28 f4 82 3d fa 75 25 be
       -0.061860964 -0.0778072 0.06394225 -0.16158286
0000c0 82 e0 4a be f6 8a 3d 3e 6a 3d c1 bd 7c 9f 45 be
       -0.19812205 0.1851004 -0.09435542 -0.1929912
0000d0 10 05 3c bd f4 e2 c4 3d 5a 11 64 3e b8 a3 de 3d
       -0.045903265 0.096136004 0.22272244 0.108710706
0000e0 38 e8 ee bc 04 8e e4 3d 80 b1 47 3e 5c 02 91 bd
       -0.029163465 0.111599 0.19501305 -0.07080528
0000f0 82 a1 85 3e c0 f0 05 be 04 28 35 3e 9a 94 53 3e
       0.26099783 -0.1308012 0.17691046 0.20662156
000100 f1 44 c9 bd 4a 51 7e bb f1 1c 00 3e f3 c3 8b be
       -0.09827603 -0.0038805776 0.1251104 -0.27297935
000110 09 74 3e 3b 59 d2 dd 3d ad 9d a5 3d 91 98 3d 3e
       0.0029060862 0.10831136 0.08086715 0.1851523
000120 b9 c4 70 3d 06 42 61 bd 09 c3 bb bc eb 75 c1 bd
       0.05878136 -0.054994605 -0.022920148 -0.09446319
000130 27 a0 79 3e 22 47 74 be 6b 6b 60 be 44 2d 3f 3e
       0.243775 -0.2385526 -0.21915977 0.18669611
000140 c3 cf 88 be c2 58 8c 3e 81 85 35 bd b7 52 00 3e
       -0.2672101 0.27411467 -0.044316772 0.12531553
000150 08 8c 27 3e 1c 98 47 be 9d 55 90 3e 75 7a 9f bd
       0.16362011 -0.19491619 0.28190318 -0.07787029
000160 93 21 1f be 44 ad 39 be 16 9e e8 3d 38 8d db 3d
       -0.15540151 -0.18132502 0.113582775 0.10720295
000170 77 25 9b 3e 1b 85 11 be a0 d9 a0 3c 9d cb 5e be
       0.3030202 -0.14210932 0.019635022 -0.2175736
000180 7e d8 d7 3c 4d e4 07 be 5c 5a 7f be 30 67 ee bb
       0.026348349 -0.13270684 -0.24936813 -0.0072754845
000190 8d 2c 27 3e b5 d2 83 3e e7 35 fd bd b7 37 43 3e
       0.16325589 0.25746694 -0.12363797 0.19064222
0001a0 37 32 59 bc a4 24 37 be ea 6f d1 bd 30 4c 3a be
       -0.013256601 -0.17885071 -0.10226424 -0.18193126
0001b0 ed fb 4d be 22 3f 5b bd a5 22 a1 3c f8 e3 79 3e
       -0.20115633 -0.053527005 0.01966984 0.2440337
0001c0 c2 8a 9b bd d9 23 8b be 2a a3 09 be e8 38 0e be
       -0.07594825 -0.27175787 -0.13441148 -0.13888896
0001d0 d5 01 ee 3d 1d f2 eb bd a4 e1 70 be 79 12 d9 3d
       0.11621443 -0.11520789 -0.23523575 0.105992265
0001e0 fd f9 8b be 31 18 99 3e 55 61 d9 be ea 46 22 be
       -0.27339163 0.2990127 -0.4245707 -0.15847364
0001f0 ac 35 3d 3e 56 d1 65 be 0d 88 fc 3e 6d dc 44 3e
       0.18477505 -0.22443137 0.49322549 0.19224711
000200 cd cf 79 bc c2 e6 8c be 81 90 c5 3c b4 5a 7b 3e
       -0.0152472975 -0.27519804 0.024116756 0.24546319
000210 f2 ed 03 be be 23 3b be 33 40 c8 3e 72 24 09 3d
       -0.12883738 -0.18275353 0.3911148 0.033482023
000220 65 d0 9d 3e f4 10 95 3e c8 80 3e bd 71 22 82 be
       0.30823055 0.29114497 -0.046509534 -0.25416902
000230 a2 96 96 be 74 9e d6 bd c8 73 87 be 7b 11 1d bf
       -0.294118 -0.10479441 -0.26455522 -0.613548
000240 f7 b2 79 be 86 7f ab 3e 5a 60 b7 3e e5 f5 7a 3e
       -0.24384676 0.3349573 0.35815698 0.24507864
000250 0f 45 18 be 9e ce a8 3d a1 27 6e 3e 0f e8 5e be
       -0.14870094 0.08242534 0.23257305 -0.21768211
000260 d6 4e 7e bd 4b e3 33 bd e9 f8 6e 3e c0 c8 4e 3e
       -0.062086903 -0.043917935 0.23337139 0.20193768
000270 a7 84 25 be 5c a9 0d 3f c5 b2 57 be 69 ab 82 be
       -0.16163884 0.55336547 -0.21064289 -0.255214
000280 07 b3 93 be c4 bd 82 3d dd c0 02 3d c8 c0 b4 3b
       -0.28847525 0.06383851 0.03192221 0.0055161454
000290 fe d3 40 3e cb 64 c0 bd 10 87 29 be 9b 6d 7b bc
       0.18830869 -0.09394225 -0.16555429 -0.015345956
0002a0 8a b2 90 be b8 a3 1f be 90 62 6c 3d 67 0f 5f 3e
       -0.28261214 -0.15589797 0.057711184 0.2178322
0002b0 a2 bc 66 3e 51 c3 77 be 1f 99 3e 3e 55 99 68 be
       0.22532895 -0.24195601 0.18613099 -0.22714742
0002c0 72 8a 0f 3e f9 e2 14 be 4a cb 18 be 6c f9 49 be
       0.14017656 -0.14539708 -0.14921299 -0.19724053
0002d0 44 04 57 bc 40 1b 08 3e a7 38 ab be 2b 3c 24 be
       -0.013123576 0.13291645 -0.3344166 -0.16038577
0002e0 d0 b7 92 bd 4d c2 1e 3d 27 9c d8 3e f6 94 eb 3e
       -0.07163966 0.03875952 0.42306635 0.46012086
0002f0 b7 58 25 bd 38 02 bf be 36 60 51 bc 52 c3 3d 3e
       -0.04036781 -0.3730638 -0.012779286 0.1853154
000300 3a a9 b9 bb 01 72 05 3d fa cd 64 3e ec 42 14 3e
       -0.0056659253 0.032579426 0.22344199 0.14478654
000310 05 92 2b 3e 46 b4 b6 3d 84 32 95 be c6 ca 9c be
       0.16754921 0.08921103 -0.29140103 -0.30623454
000320 ad 90 7b be 9a fe ef 3c 77 86 45 3e b7 f1 12 bd
       -0.24566908 0.029296208 0.19289576 -0.03587505
000330 46 91 a4 bd d1 bb f6 3c 16 b0 44 be 00 04 a5 bc
       -0.08035521 0.030118855 -0.19207796 -0.020143509
000340 fc 96 81 bc 5b 70 38 3e 63 82 6f be ae 24 da 3b
       -0.015819065 0.1801161 -0.23389582 0.0066572046
000350 bd c5 58 3e f7 9a 48 3d 36 c2 3e bd 80 8c fd bd
       0.21169181 0.04897591 -0.046571933 -0.12380314
000360 e2 4a b9 3d ad c7 6e be 62 97 80 3a fa 83 3f bd
       0.09047486 -0.23318358 0.0009810741 -0.046756722
000370 23 a5 1e be 8a ce 1f be 5c 43 2f bd ab 1f 9e 3d
       -0.15492682 -0.15606132 -0.04278885 0.07720884
000380 bd 68 a0 3d 4e c8 32 3e 50 6d 27 3c d1 c8 58 be
       0.07832477 0.17459223 0.010218933 -0.21170355
000390 26 17 2e 3e 86 00 de bb 80 3e 1b 3e e3 41 48 3e
       0.17001018 -0.0067749647 0.1516056 0.19556384
0003a0 80 5d f9 bd 1c 72 f6 b9 56 da 9b bb fa 31 23 be
       -0.12176037 -0.00047005794 -0.0047562523 -0.15937033
0003b0 81 82 08 3e 23 20 c6 3d f6 82 98 bd 1a 9d cc bd
       0.13331033 0.09674098 -0.07446854 -0.09990902
0003c0 ba 31 00 3e 41 d7 55 3e 3f 79 fe 3d 1f 61 4c 3e
       0.12518969 0.20882894 0.124254696 0.19958924
0003d0 85 84 7c bc ee 8a af be 81 47 a6 be 14 67 0d bd
       -0.0154124545 -0.34285682 -0.32476428 -0.03452213
0003e0 5c 0f 25 3c b2 a2 c3 3d 22 98 7b be d1 15 8d 3e
       0.010074463 0.09552516 -0.24569753 0.27555707
0003f0 82 d8 81 bd 59 3e 1c 3e 00 ea 6f bd 10 4f 00 bc
       -0.06340124 0.15258159 -0.05857277 -0.00783135

bias f4 [100]
000000 55 e1 4a bd cc fe b2 3d 10 7f c6 bd 9f 88 20 3d
       -0.0495313 0.08740005 -0.09692204 0.039192792
000010 4b 2a 13 3e 1e e4 9a 3e f0 84 01 be 30 58 32 be
       0.14371602 0.30252165 -0.12648368 -0.17416453
000020 9d ae a1 3d d8 a5 25 3e 2a 7f 86 3e cc d4 50 bd
       0.07894633 0.16176546 0.26268893 -0.05098419
000030 56 26 f9 3c a9 30 17 be 40 d8 59 3d 5d 9d 65 3d
       0.030413788 -0.14764656 0.053184748 0.056058276
000040 1b 16 20 3e fc 6a 48 3e f6 e2 2f bc fe 84 83 bd
       0.15633433 0.19572061 -0.010735264 -0.064218506
000050 e7 7c 04 3e a6 45 c8 3d aa 73 7b 3e d8 32 c6 3d
       0.12938271 0.097789094 0.24555841 0.096776664
000060 c5 71 eb 3d d5 63 61 3e 59 da 36 3e c4 6a 24 3e
       0.11496309 0.22010739 0.1785673 0.16056353
000070 54 ff 4e 3c a6 47 1d 3e df 26 0f bb 66 54 12 3e
       0.012634117 0.15359363 -0.0021843237 0.14290008
000080 fe 7d 1a be 89 96 7b 3d 94 81 33 3e f9 d1 cc be
       -0.15087125 0.06142286 0.17529899 -0.40003946
000090 99 1a 0e bd 2e be 9d 3e ab 5c a1 bd f7 96 16 bc
       -0.034693334 0.30809158 -0.07879003 -0.009191266
0000a0 8f 9b 67 3d 5c 6d 5a 3e 99 88 4e 3e 23 1f 4b be
       0.056544837 0.2133078 0.20169295 -0.19836096
0000b0 56 81 b8 be b1 3f e3 bd bf 2c a9 be 37 a3 93 3e
       -0.36036175 -0.110961325 -0.3304195 0.2883546
0000c0 bb 9e 40 be a5 47 4c 3e b5 83 38 be bf 85 c2 bd
       -0.18810551 0.19949205 -0.18018992 -0.09498166
0000d0 d3 d2 28 3e 0f 50 2d be 5d 69 2a be 70 74 28 3e
       0.16486673 -0.16925071 -0.16641755 0.16450667
0000e0 cb b6 48 3e 32 a1 9d 3e 25 c3 f7 be 51 7d 3d be
       0.1960098 0.30787045 -0.4839107 -0.18504836
0000f0 de 16 1d 3e e8 bd 74 3e 7f 2f 93 3e e0 d6 58 3e
       0.15340754 0.23900568 0.28747174 0.21175718
000100 19 3a 64 3e 36 96 d8 be ec 26 af 3d 30 e0 c2 bd
       0.22287787 -0.42302102 0.08552346 -0.095154166
000110 9b 61 98 3d 49 16 82 3d fc af 67 3e 92 c5 53 3e
       0.07440492 0.06351907 0.22625726 0.20680836
000120 19 87 2f bd 2e ea 7a be 94 84 6c 3e 3d 44 21 be
       -0.04285345 -0.24503395 0.2309745 -0.15748687
000130 28 ad c4 be 44 7e 82 3d 22 fc ad bd d5 5e 87 3d
       -0.38413358 0.063717395 -0.08495356 0.06609885
000140 f7 46 bf bd 0e e4 a2 be 4f 92 b9 3c 6e 47 e2 be
       -0.09339707 -0.31814617 0.022652773 -0.44195122
000150 41 b9 14 bd e4 18 ee bc 7c 72 75 bd 80 c0 39 3e
       -0.036309484 -0.029064603 -0.059923634 0.18139839
000160 ee 45 5d 3e 11 d1 d5 be fd 2f 65 3d 59 52 fc 3d
       0.21608707 -0.41761068 0.05595397 0.12320394
000170 01 7a 41 bb 80 95 80 3c b6 26 97 3e 8f c3 56 be
       -0.0029522183 0.015696287 0.29521722 -0.20973037
000180 ec 77 99 3e e4 f8 bd bd c4 a8 23 be e2 e4 f8 3d
       0.29974306 -0.09275988 -0.15982348 0.12153031

weight f4 [50, 100]
000000 df 3a 87 3d c0 e9 bc 3c 3a 70 99 bd 50 40 13 3c
       0.06603026 0.02306068 -0.07492109 0.008987501
000010 12 e5 0d 3d 9f 9c be 3d 28 45 d4 bc 7a ab b7 bd
       0.034642287 0.09307217 -0.025911883 -0.089682534
000020 ba 72 02 3d b0 ca b2 3b ea 07 43 bd 83 3f 99 bd
       0.031847693 0.005456291 -0.04761497 -0.07482817
000030 e2 cf 80 bd d0 5c 54 bd 80 bc cd bb db ee a7 bd
       -0.062896505 -0.051846325 -0.0062785745 -0.08199855
000040 f8 67 e7 bc 52 f1 b9 bd 4a b8 c0 bd e1 7f bc 3d
       -0.028247818 -0.09079231 -0.0941015 0.092040785
000050 51 33 99 3d dc 55 d8 3c 8e 8b 2e 3d 37 22 b8 3d
       0.07480491 0.026408128 0.04261356 0.08990901
000060 e7 a1 1d bd a2 54 a6 bd ac ee be bc 18 90 f8 bc
       -0.03848448 -0.08121611 -0.023307167 -0.030342147
000070 a8 7a 21 3c dd d8 c4 bd bd 4e 9e bd 20 cd bb bd
       0.009855904 -0.09611676 -0.07729862 -0.09169984
000080 98 08 5c 3c a7 dd 71 bd 8a 0f 1d 3d 50 70 4c 3c
       0.013429783 -0.059049275 0.038344897 0.012477949
000090 2c a4 a2 3c a8 41 f9 bc d0 66 91 bd 00 ff d0 bc
       0.019853674 -0.030426815 -0.07099688 -0.025512218
0000a0 a8 96 df bc f6 74 1b 3d 0d 05 6b bd 14 76 e1 3c
       -0.027293518 0.03795334 -0.057377864 0.027522124
0000b0 03 77 90 bd 45 b7 cb bd e7 6d 2d bd 54 55 ca 3c
       -0.0705395 -0.09947065 -0.04234114 0.02469889
0000c0 6c 31 d1 bc 55 0a b8 bd 8a 1e 6c bd 16 63 0d bd
       -0.025536261 -0.08986346 -0.05764631 -0.034518324
0000d0 92 5e 58 3d f2 39 0b 3d ba 87 a3 bd 32 94 b7 bd
       0.052824564 0.033990808 -0.07984872 -0.08963813
0000e0 e2 b7 4d 3d e2 3f 0f 3d 99 13 c1 3d 12 db 18 3d
       0.050224192 0.034973033 0.09427566 0.037318297
0000f0 bd c6 58 bd 63 06 98 3d a2 f9 08 3d 98 e3 7f 3c
       -0.052923907 0.07423093 0.033441193 0.015618227
000100 1c 24 89 bd e2 61 06 3d a7 5d 72 bd ce 45 9d bd
       -0.066963404 0.032808192 -0.059171345 -0.0767933
000110 a0 6f ac 3b 85 47 84 3d 3f 79 86 3d 83 58 62 bd
       0.00526233 0.06458954 0.065660946 -0.055260193
000120 c0 73 71 bb 92 ea 88 bd 18 fd e6 bc 82 86 11 3d
       -0.0036842674 -0.06685366 -0.028196856 0.035528667
000130 9a 06 51 3d 2c 9d 95 3c 10 b8 63 3c 93 27 80 3d
       0.051031686 0.018263422 0.013898864 0.06257548
000140 85 e6 8a bd 80 dd b4 bc ea 85 b8 bd b3 b9 c0 bd
       -0.06782249 -0.022078276 -0.09009917 -0.09410419
000150 ca 61 cc bd 81 18 80 3d c5 15 96 bd fa 9c af bd
       -0.09979589 0.06254674 -0.07328371 -0.08574863
000160 aa 5d 87 bd d2 4f 6c 3d aa db 35 bd a2 75 b0 bd
       -0.06609662 0.05769331 -0.04439894 -0.08616187
000170 e7 7d 36 bd d8 e7 07 3c 90 c3 3a 3c cb be aa 3d
       -0.044553664 0.008295022 0.011399165 0.08337172
000180 58 f5 54 3c a8 47 18 3c af 86 c8 3d cb 80 c4 bd
       0.012997948 0.009294428 0.09791314 -0.09594878
000190 4f 90 30 3b 69 92 42 3e d3 a3 51 bd c5 ae 33 bc
       0.0026941483 0.19001164 -0.051181626 -0.010966961
0001a0 e0 e9 98 3c fc d9 75 3d 59 fb 81 3e 33 e4 81 3e
       0.018666208 0.06002234 0.25387076 0.25369415
0001b0 65 e1 8e 3d dd 38 d2 3d a6 1c b8 3d b0 36 19 3d
       0.06976584 0.10264752 0.08989839 0.03740567
0001c0 01 e9 42 3e aa d9 0b 3e 52 31 85 3e 71 c0 61 3e
       0.19034196 0.13657251 0.2601419 0.22046067
0001d0 20 21 a6 3c 43 23 06 3e ca a6 59 3e 3c 90 8e 3e
       0.020279467 0.13099389 0.21255031 0.27844417
0001e0 f1 fb bc 3c 33 19 3d 3e 26 5d 1a 3e 12 af b4 3d
       0.023069354 0.18466644 0.15074596 0.088224545
0001f0 a3 aa 46 3d ea 5f 81 bc a4 b7 00 3e e8 4d 10 3e
       0.048502576 -0.015792806 0.12570053 0.14092219
000200 b9 e8 7e 3c b1 1b 5e 3d e8 33 80 3c e5 02 d2 3d
       0.015558415 0.054225627 0.01564975 0.10254458
000210 d7 04 d4 3e f6 04 6b 3e d1 32 92 3d e3 c0 1d 3e
       0.41409943 0.22951111 0.07138599 0.15405612
000220 37 b1 13 3e cc 79 b1 3d f0 03 47 bd 2f 83 d7 3c
       0.14423071 0.08665809 -0.04858774 0.02630767
000230 d7 bd 13 3d 3a f6 89 3d 95 f9 3f 3e 51 26 ad 3d
       0.036069717 0.06736417 0.18747552 0.08454574
000240 d8 ad 23 3e 0e 50 95 bd f4 28 c8 3e 30 64 d2 3c
       0.15984285 -0.0729066 0.39093745 0.025682539
000250 6d a0 16 3d 3d dd 09 3e 1f 72 83 bc 3b b7 d4 bc
       0.036774088 0.13463302 -0.016045628 -0.025966277
000260 3b 0f a3 3d b3 fd 9a 3e 8c ad 4d 3e e7 77 69 3c
       0.07961889 0.30271682 0.20085734 0.014249778
000270 76 83 a3 3d c7 ba 67 3c 0c 6a 8a 3e d0 c2 01 3e
       0.079840586 0.014143652 0.27034032 0.12671971
000280 da d7 32 bc 96 32 7f 3d ce 26 3b 3c c8 bb 65 3e
       -0.010915721 0.062304102 0.011422826 0.22434914
000290 e1 55 47 bd 3d 24 09 3f a6 af 0e 3d da 35 3c 3e
       -0.048665885 0.5357092 0.03483548 0.18379918
0002a0 62 c5 3f 3e 17 99 7f 3d f3 bb 5c 3e 93 0f 18 3e
       0.1872764 0.062401857 0.21556072 0.14849691
0002b0 fc 4c 22 bc 05 9d 8a 3e 94 9b 1b bd 96 41 dc 3d
       -0.00990605 0.2707292 -0.037990168 0.10754697
0002c0 57 60 84 3e 85 36 17 3e b6 f6 81 3e eb af 2b 3e
       0.2585475 0.14766891 0.25383538 0.16766326
0002d0 1d e8 95 3d 2f 3a 9a 3e bf 98 44 bb 7e 7f 7d 3e
       0.07319663 0.30122516 -0.002999827 0.24755666
0002e0 46 ce b6 3d e7 d4 6f 3d f3 8f 99 3d 02 1b ec 3d
       0.08926062 0.05855265 0.07498159 0.11528589
0002f0 40 2b a4 3c 58 40 cd 3e 4b 47 3b 3e bd 0c 0d 3e
       0.020040154 0.40088153 0.18288915 0.1377439
000300 ea 21 36 3e b8 3a aa 3c bd d0 16 3e 24 f8 e7 3c
       0.17786375 0.020779952 0.14728065 0.028316565
000310 26 a0 30 3e 3f d6 43 3e 1e 96 76 3d 95 46 58 3d
       0.17248592 0.19124697 0.060201757 0.052801687
000320 96 b1 10 3d 89 52 79 bd 36 39 02 bd 87 68 3b 3d
       0.03532561 -0.060869727 -0.03179284 0.045753982
000330 16 da 91 bc 36 69 eb bd 24 85 e6 bd 5d 32 8a 3d
       -0.017804187 -0.11494677 -0.11255863 0.06747887
000340 04 b0 72 3c 97 75 03 bc 21 8f de bc e3 6c 4d 3d
       0.014812473 -0.008023641 -0.027167859 0.05015267
000350 0e 69 5f 3d 89 b2 f3 bd 9d e3 a8 3a 05 16 ba 3c
       0.054543547 -0.11899287 0.0012885217 0.022715578
000360 2f 68 1c bb f7 3a ab bd b4 28 04 bc d3 31 9c bd
       -0.002386581 -0.08360856 -0.008066345 -0.07626691
000370 e1 ce d9 bd a6 0e 59 3d e8 b6 3a 3d 44 aa af 3c
       -0.10635162 0.052992485 0.04558459 0.021443494
000380 ff 54 52 bd 53 68 a6 bd 18 ab 85 3c 45 0c 99 bd
       -0.05135059 -0.08125367 0.016316935 -0.07473043
000390 a9 e6 e9 bd 63 64 74 bd de 35 d9 bd 41 5b d1 3c
       -0.11420948 -0.05966605 -0.106059775 0.025556209
0003a0 8d fa 75 bd af 91 1d 3d c2 f2 a6 bd d5 3a 60 bd
       -0.060053397 0.038469013 -0.08151771 -0.054743607
0003b0 68 75 a8 3c b4 f3 89 bc 3f 0f 80 3d a0 88 94 3d
       0.020563796 -0.01683984 0.06252908 0.07252622
0003c0 06 ec e7 3c a9 ca e2 bb 94 39 8c 3d c0 13 09 3c
       0.028310787 -0.0069211316 0.0684692 0.008366525
0003d0 ba 15 a3 bd d8 88 59 3d 69 0a 59 3d 22 30 8c 3b
       -0.079631284 0.05310902 0.052988444 0.004278199
0003e0 d2 d0 90 bd eb 17 d2 bd 03 dd 82 3d 99 94 a8 bd
       -0.07071079 -0.10258468 0.06389811 -0.08231468
0003f0 7f 1c 7b 3d 6c 4b b6 3b ac 07 ac bc e5 b1 8b bd
       0.061306473 0.00556319 -0.020999752 -0.0682104

bias f4 [50]
000000 00 3b 46 bb 00 44 a7 3d c7 ba b8 bc 2e 35 ba 3c
       -0.003024757 0.08167267 -0.02255 0.022730436
000010 45 8a b2 bd 2e ff 0a bf d0 d6 b6 3d 27 04 87 3d
       -0.08717779 -0.54295623 0.08927691 0.06592589
000020 b0 35 9c 3d 82 2a 90 3d d5 08 5f 3d d1 95 b2 3c
       0.076274276 0.07039358 0.054451782 0.021799954
000030 3d 3f 5b 3d 46 0a 21 3d de bf e8 bd 32 e1 e2 3c
       0.053527106 0.03931644 -0.11364721 0.027695272
000040 95 41 03 3e b0 66 f4 3c d8 c8 a2 bb 1c 6a 89 3d
       0.12817986 0.029834121 -0.00496779 0.06709692
000050 c6 20 39 3d 06 d7 57 bd 6d 28 a5 3d 0c 90 40 3d
       0.04519727 -0.052695297 0.08064351 0.047012374
000060 26 b2 b5 3c 0c de c9 be b5 89 b3 b9 be 5d 99 bb
       0.022179674 -0.3942722 -0.0003424414 -0.0046803644
000070 10 8d 04 bd 56 5b 70 bc b3 c2 19 3d 3f 07 ae be
       -0.03236109 -0.014670214 0.037539195 -0.33989903
000080 3a 2a 1e 3e 4e 5e c8 bd 60 47 c8 3c 78 f3 b0 3d
       0.15445796 -0.09783612 0.024448097 0.08640188
000090 8a 5b 9f be c6 3a ab bd 62 c8 73 3d 54 e0 bc bc
       -0.31124526 -0.083608195 0.05951727 -0.023056187
0000a0 64 d6 55 3c 96 cb b7 bd e7 83 f3 3d e7 13 20 3c
       0.013051603 -0.08974378 0.11890393 0.00977037
0000b0 9f 2a 8f bd ea dd 0d bd c8 56 2a 3e 3d b2 7f 3b
       -0.06990551 -0.034635462 0.16634667 0.003901615
0000c0 05 50 b6 be 2a b1 17 3d
       -0.35607925 0.03703419

weight f4 [1, 50]
000000 54 60 21 bd b0 fe 67 3e 31 1e 68 bd 90 ea 5d 3e
       -0.039398506 0.2265575 -0.056669418 0.2167151
000010 54 0d 48 bd 16 4d e9 3e a1 88 95 3e 03 8e 86 3e
       -0.048840836 0.45566624 0.29205802 0.2628022
000020 d4 3e 55 bd 2f 1f d7 bd 7f 1b e8 bd 04 e0 c1 bd
       -0.05206187 -0.10503995 -0.113333695 -0.09466556
000030 6b 4e bb 3a aa a7 2e 3e ea 9c 80 bb 6a fe 88 3e
       0.0014290338 0.17056146 -0.0039249556 0.26756603
000040 da 37 7b 3e 3c 9c 93 bd 9c 39 88 3e ad 8d 58 bd
       0.24533024 -0.07207534 0.26606452 -0.052869488
000050 ed 80 84 3e aa 87 8a bc 36 8a 30 3e 54 a0 4f 3e
       0.25879613 -0.016910393 0.17240223 0.20276004
000060 a2 7c c2 bc 54 ce 1f 3f 2e a7 89 b9 d3 ee e7 bd
       -0.02374107 0.62424207 -0.00026255235 -0.11324849
000070 2e b6 a7 3d 54 46 59 bd 2e d3 02 be a2 00 cd 3e
       0.08189045 -0.053045586 -0.12775871 0.40039545
000080 cc 89 4c 3e 78 d9 b8 bd 17 f3 22 3e db 80 9a 3e
       0.1997444 -0.09025854 0.15913044 0.30176434
000090 75 25 ce 3e c5 43 b9 bd 79 b6 47 bd a3 49 91 3e
       0.40262952 -0.09046129 -0.048758004 0.28376493
0000a0 07 a8 4e 3e 8f f6 b7 bd 3f d9 4e 3e 08 c7 ac bc
       0.20181285 -0.08982574 0.2020006 -0.021091
0000b0 ff b1 79 bd 20 3e d4 bd 80 0e 87 3e a6 ae 4d 3e
       -0.060960766 -0.10363412 0.2637825 0.20086154
0000c0 85 36 2a 3f aa 44 45 3e
       0.6648944 0.19264475
