Nonlinear regression/model/model.pkl (torch, 32903 bytes, 9 tensors)

weight f4 [10, 1]
-0.33103973 -0.923254 -0.063604675 0.33950007 0.26645526 -0.38729608 -0.4260499 0.8118549
0.09387529 -0.034516383
00000000: 0a7e a9be 605a 6cbf 2b43 82bd f4d2 ad3e
00000010: d36c 883e ac4b c6be 3623 dabe b9d5 4f3f
00000020: b041 c03d 0d61 0dbd

bias f4 [10]
0.8401757 -0.8580997 1.0950223 0.45835313 1.0165384 -0.4097798 -0.53704536 -0.19445021
0.6520796 -0.9953403
00000000: c115 573f 6cac 5bbf b129 8c3f 43ad ea3e
00000010: ee1d 823f a8ce d1be ce7b 09bf f51d 47be
00000020: b0ee 263f 9fce 7ebf

weight f4 [10, 1]
0.057809383 -0.86096776 -0.1655548 -0.82505596 -1.2467871 0.7759451 -0.80936146 -1.2186954
0.04983309 0.27484024
00000000: 88c9 6c3d 6268 5cbf 3387 29be de36 53bf
00000010: b896 9fbf 57a4 463f 5032 4fbf 36fe 9bbf
00000020: c81d 4c3d dcb7 8c3e

bias f4 [10]
0.32917327 1.1554536 1.0934007 1.1822903 0.24830036 0.6027198 -0.8065864 -0.7267899
0.74437207 -0.9861344
00000000: 6689 a83e e7e5 933f 8ef4 8b3f 4a55 973f
00000010: 7342 7e3e d84b 1a3f 727c 4ebf e70e 3abf
00000020: 2b8f 3e3f 4e73 7cbf

weight f4 [100, 20]
0.2743201 0.058159806 0.085091345 -0.10422344 -0.026503855 -0.03216836 0.13475025 -0.3716358
-0.091831684 0.10805688 0.043547392 0.26138163 0.02073444 0.003923216 0.29529512 -0.3186074
-0.049369264 0.36602232 0.099325396 -0.08205359 -0.2709641 -0.1460693 0.03711865 0.2985394
0.16148734 -0.030487623 -0.14466168 0.31769592 -0.014992711 0.27054083 -0.029757226 -0.18121184
-0.16938935 -0.3660402 -0.38592073 0.12562083 -0.0024198971 -0.19332783 -0.1486126 -0.058736823
-0.5976731 -0.19767767 -0.13190094 0.21157317 -0.090914994 -0.00036612072 -0.07935374 0.42667723
-0.1797831 0.29851478 -0.23294444 -0.35289812 -0.3575061 -0.4731512 -0.2615041 0.18341927
-0.17652236 -0.12321474 -0.040472116 0.48145318 -0.1540881 -0.2634885 0.18444833 0.095662534
0.23194855 -0.29070786 -0.24684948 0.13794078 0.20341508 -0.042609528 0.034526277 0.0853107
-0.20990849 -0.045462873 -0.30607235 -0.033270516 -0.07621215 -0.21730496 0.033988643 0.19272846
-0.013165884 0.09830724 -0.12060001 0.13245425 -0.06397591 -0.09270099 -0.049006976 0.24172533
0.116843164 -0.013357842 -0.14890763 0.15322874 0.15581247 -0.23343447 0.15550621 0.2435085
-0.037876368 -0.09593476 -0.042725626 -0.07511533 0.1842288 0.36239433 0.17113926 0.0025640903
0.15990452 -0.038171165 -0.07748038 -0.18647636 0.06057058 -0.014163239 0.20973238 0.24462076
0.28530228 0.22761428 0.00043766355 -0.26596922 0.31704453 0.27824822 0.0061524827 -0.075055055
-0.062726155 0.14239098 0.21501967 -0.15915062 -0.014389653 0.19422796 0.11600359 -0.36018658
-0.03291489 -0.10829277 -0.14949091 0.0041840184 0.069382936 0.165353 0.15008175 -0.25634652
0.29522827 0.39765194 0.21587227 0.055295575 -0.059185863 0.11106341 0.008103027 -0.10956594
0.016914513 0.13872434 -0.077273555 0.07793775 -0.050730683 0.17357427 0.04984012 -0.054660294
-0.028331378 0.10812647 0.14705338 0.134707 0.0939641 -0.19167294 0.16924267 0.078058645
-0.14205948 0.4884027 -0.13162571 -0.23753329 -0.22237226 0.10854977 0.38087493 -0.18409128
0.0009814032 -0.038023245 -0.24430197 -0.022501394 -0.013676977 0.12888044 0.36215118 -0.07200515
0.21210186 0.44246873 0.048245568 -0.094105706 -0.108372234 -0.32284847 0.2518669 -0.07955745
0.21976697 -0.039996117 -0.078015536 0.016177999 0.22858274 -0.23474626 -0.1049017 -0.2157476
0.20632112 -0.22319871 -0.18499617 -0.0035575847 -0.098736934 -0.2615839 0.11730878 -0.114606254
0.04865008 0.0781338 0.19925176 0.01383885 -0.047478072 0.019182824 -0.10003821 -0.16610722
0.08385911 -0.20972516 0.20385244 -0.09932174 -0.06024966 0.1843361 0.051964946 0.28561145
0.018550243 0.00024885207 0.08353168 -0.23421179 -0.1078958 0.20034052 -0.43675402 -0.36970812
-1.1161052 0.29350984 0.33161792 -0.16860388 -0.40918818 0.5353513 -0.5929433 0.011930015
-0.19471432 0.018330596 0.19538158 -0.34668866 0.27403793 0.19323307 -0.4733882 0.32399717
-0.07078669 -0.16541398 0.24336901 -0.07851056 0.20174679 -0.17064951 -0.12834957 0.108594455
0.17862698 0.019403554 0.107318684 -0.25230283 0.12781614 0.015322082 -0.068685696 0.12090479
00000000: af73 8c3e fa38 6e3d 5f44 ae3d 1973 d5bd
00000010: 9d1e d9bc f8c2 03bd f8fb 093e 0c47 bebe
00000020: 4012 bcbd ed4c dd3d c05e 323d d0d3 853e
00000030: 46db a93c 528e 803b ec30 973e 8220 a3be
00000040: 6d37 4abd 4767 bb3e 1d6b cb3d b60b a8bd
00000050: cebb 8abe 3193 15be ba09 183d 28da 983e
00000060: f05c 253e 2ec1 f9bc 3122 14be 0aa9 a23e
00000070: fda3 75bc 5484 8a3e 6dc5 f3bc 998f 39be
00000080: 6774 2dbe 9f69 bbbe 6797 c5be bfa2 003e
00000090: 2397 1ebb bbf7 45be e72d 18be 0696 70bd
000000a0: 1b01 19bf 046c 4abe 0a11 07be a3a6 583e
000000b0: a431 babd e4f3 bfb9 3784 a2bd 7075 da3e
000000c0: 1019 38be eed6 983e fd88 6ebe 10af b4be
000000d0: 0a0b b7be e040 f2be dee3 85be 43d2 3b3e
000000e0: 47c2 34be 0258 fcbd 17c6 25bd 0881 f63e
000000f0: 45c9 1dbe f7e7 86be 06e0 3c3e b8ea c33d
00000100: ec83 6d3e a9d7 94be 1cc6 7cbe 5940 0d3e
00000110: 0b4c 503e 5487 2ebd 6d6b 0d3d 60b7 ae3d
00000120: 40f2 56be 4737 3abd 84b5 9cbe aa46 08bd
00000130: 1e15 9cbd 3185 5ebe ad37 0b3d 9c5a 453e
00000140: b8b5 57bc 4e55 c93d 23fd f6bd 16a2 073e
00000150: cd05 83bd 04da bdbd 8abb 48bd d886 773e
00000160: 784b ef3d dada 5abc 3e7b 18be ffe7 1c3e
00000170: 4e8d 1f3e 7209 6fbe 053d 1f3e 4b5a 793e
00000180: 4024 1bbd 7279 c4bd 1101 2fbd 11d6 99bd
00000190: 79a6 3c3e c08b b93e 213f 2f3e 4c0a 283b
000001a0: 03be 233e 5e59 1cbd 09ae 9ebd a9f3 3ebe
000001b0: db18 783d ee0c 68bc 16c4 563e dd7d 7a3e
000001c0: 2413 923e b813 693e 3576 e539 1e2d 88be
000001d0: a953 a23e 8d76 8e3e c49a c93b 77b6 99bd
000001e0: 9276 80bd f1ce 113e 1e2e 5c3e 61f8 22be
000001f0: 94c2 6bbc b2e3 463e 4a93 ed3d 606a b8be
00000200: c4d1 06bd 9ac8 ddbd 2514 19be 171a 893b
00000210: a418 8e3d 4c52 293e 08af 193e da3f 83be
00000220: 2928 973e 0999 cb3e 9f0d 5d3e 9d7d 623d
00000230: e06c 72bd 3775 e33d 8fc2 043c 1c64 e0bd
00000240: 4e90 8a3c c10d 0e3e 9941 9ebd d49d 9f3d
00000250: faca 4fbd 74bd 313e 2725 4c3d 79e3 5fbd
00000260: 3517 e8bc 6971 dd3d 2995 163e a2f0 093e
00000270: 4070 c03d e945 44be f34d 2d3e 36dd 9f3d
00000280: 0a78 11be eb0f fa3e e4c8 06be ed3b 73be
00000290: 8eb5 63be 584f de3d 0a02 c33e 6d82 3cbe
000002a0: 6da2 803a 43be 1bbd 4c2a 7abe d854 b8bc
000002b0: 6615 60bc 3cf9 033e e16b b93e 7077 93bd
000002c0: 3b31 593e 438b e23e 259d 453d 7eba c0bd
000002d0: 43f2 ddbd 654c a5be b3f4 803e 04ef a2bd
000002e0: 980a 613e f8d2 23bd 9cc6 9fbd b987 843c
000002f0: 9811 6a3e 5361 70be b4d6 d6bd f0ec 5cbe
00000300: d845 533e 348e 64be a36f 3dbe 5e26 69bb
00000310: 9736 cabd 53ee 85be 963f f03d afb6 eabd
00000320: 4e45 473d 9d04 a03d a708 4c3e 58bc 623c
00000330: 5e78 42bd 4c25 9d3c d5e0 ccbd 0318 2abe
00000340: 53be ab3d 31c2 56be b2be 503e 3269 cbbd
00000350: 59c8 76bd 9ac2 3c3e 32d9 543d aa3b 923e
00000360: aef6 973c 5c78 8239 a812 ab3d 37d5 6fbe
00000370: 79f8 dcbd 1126 4d3e 399e dfbe 624a bdbe
00000380: 89dc 8ebf ec46 963e d3c9 a93e 7fa6 2cbe
00000390: 1d81 d1be c80c 093f 22cb 17bf 1c76 433c
000003a0: 3163 47be 0c2a 963c 1c12 483e 2d81 b1be
000003b0: b34e 8c3e e4de 453e f05f f2be f5e2 a53e
000003c0: 9df8 90bd 4862 29be ba35 793e 25ca a0bd
000003d0: b696 4e3e bfbe 2ebe 126e 03be c566 de3d
000003e0: fee9 363e 34f4 9e3c e6c9 db3d d62d 81be
000003f0: 3ce2 023e 7809 7b3c 16ab 8cbd ee9c f73d

bias f4 [100]
-0.072248325 -0.15521663 -0.13469215 -0.06204299 0.23369531 0.37827027 -0.13647091 -0.029103946
-0.0044799116 -0.037459575 0.20030478 -0.3488176 0.12482278 0.08036672 -0.057939965 -0.11024218
0.03247835 -0.38581678 -0.28008246 -0.20787682 -0.18540064 0.07981237 0.21812844 0.037131082
-0.09651822 -0.06644773 0.023051286 0.039295338 0.063714035 0.15918045 0.26507282 0.017292386
-0.14553683 0.14936498 -0.34882316 -0.013350862 0.111100316 0.041461132 0.30985168 0.2198752
-0.16519898 -0.3854018 0.22492963 -0.21355018 -0.030559912 -0.1315187 -0.21826021 0.15048987
0.0036702878 0.096395664 -0.099241145 -0.04570759 -0.1672498 -0.018617406 0.026973993 -0.060986433
-0.10468802 0.2748985 0.13742831 -0.5887642 -0.043417513 -0.119260386 0.060955513 0.17353168
0.11065704 -0.07861676 0.04596667 0.08099337 -0.30585513 -0.08586922 -0.17582278 0.21093464
-0.10400681 0.2034595 0.29312953 0.0938045 -0.13583033 -0.058999103 -0.50628865 -0.13459748
0.019380791 0.117538854 -0.2199278 -0.09654552 0.16685382 -0.18079685 -0.0032444661 -0.09592382
0.013181364 -0.08308867 -0.0036705134 -0.08067188 -0.06520754 0.1470222 0.19027868 -0.017836507
-0.09569821 0.112149775 -0.19454718 0.08315046
00000000: eef6 93bd 1cf1 1ebe bdec 09be ca20 7ebd
00000010: d34d 6f3e a4ac c13e 08bf 0bbe 666b eebc
00000020: 39cc 92bb 366f 19bd b21c 4d3e 3898 b2be
00000030: 16a3 ff3d 4f97 a43d 7552 6dbd a7c6 e1bd
00000040: 0508 053d c789 c5be f866 8fbe a9dd 54be
00000050: aad9 3dbe ab74 a33d 105d 5f3e c316 183d
00000060: 58ab c5bd bf15 88bd 0dd6 bc3c 26f4 203d
00000070: 817c 823d 3300 233e a0b7 873e c3a8 8d3c
00000080: 9b07 15be 22f3 183e f398 b2be 93bd 5abc
00000090: 9088 e33d 26d3 293d e1a4 9e3e f726 613e
000000a0: ec29 29be 6253 c5be f453 663e e6ac 5abe
000000b0: c858 fabc d7ac 06be 9b7f 5fbe 041a 1a3e
000000c0: 3689 703b 176b c53d f13e cbbd e237 3bbd
000000d0: 8843 2bbe 8883 98bc 90f8 dc3c e9cc 79bd
000000e0: ac66 d6bd 7fbf 8c3e 02ba 0c3e 40b9 16bf
000000f0: 90d6 31bd ca3e f4bd 7dac 793d 4ab2 313e
00000100: 28a0 e23d d301 a1bd 8c47 3c3d dadf a53d
00000110: 0b99 9cbe 34dc afbd e30a 34be 40ff 573e
00000120: 8601 d5bd b057 503e 1315 963e 931c c03d
00000130: 1b17 0bbe 0ba9 71bd 229c 01bf ecd3 09be
00000140: 77c4 9e3c 36b8 f03d c134 61be a8b9 c5bd
00000150: badb 2a3e cf22 39be 1ca1 54bb b573 c4bd
00000160: a6f6 573c 652a aabd ff8c 70bb 4c37 a5bd
00000170: 888b 85bd fd8c 163e 6ad8 423e de1d 92bc
00000180: 6cfd c3bd c8ae e53d 6037 47be ca4a aa3d

weight f4 [50, 100]
0.043183424 0.09545595 0.16621493 0.1306192 0.014411558 0.12610444 0.20062336 -0.01014735
0.17828436 0.12600172 -0.08419085 0.7404168 0.16089724 0.1928636 0.13868679 0.09765341
-0.025645224 0.26455146 0.4925859 0.34992713 0.09215485 0.19405857 0.08088458 0.1571162
0.066512495 0.19311859 -0.0050094724 0.16207108 0.13444449 0.13250287 0.14977127 0.12288912
0.048354622 -0.012424428 0.6315812 -0.115456544 0.06631803 0.10643726 0.22742668 0.13589783
0.08355458 0.408071 -0.021130355 0.022351608 0.025767274 0.04592088 0.08805272 0.061195202
-0.019915575 0.033554424 0.18142001 0.07255553 0.05872129 0.049886495 -0.06886345 -0.005034555
0.1780991 0.06829551 0.1793068 0.71891034 0.031447146 -0.04012674 0.17306048 -0.053900387
0.08141757 -0.090830594 0.018926319 0.06771883 0.088872835 -0.04139344 -0.03307633 0.017978488
-0.043358643 -0.045779783 0.11955353 -0.018343668 0.07425998 -0.07119817 0.45287365 0.13520512
-0.027837588 0.1830476 0.17654566 0.14989802 0.053324867 0.057103045 0.04149569 0.04527012
0.14205824 0.2114441 0.22058274 0.13266167 0.021782892 0.124375686 0.06482892 0.05981362
-0.06519242 0.1033044 0.18743667 -0.039435927 0.23979242 -0.29140356 -0.42617366 0.045564774
0.1931217 0.25666672 0.11286954 -0.05222046 0.17498411 0.102639124 0.2148942 0.7479641
0.15589778 -0.12255795 -0.114016384 -0.039337683 -0.0039768964 -0.3453249 0.4182045 -0.38133428
0.08671687 0.20732345 0.008723974 -0.4754414 0.1664758 0.21650924 -0.054219197 0.35321423
0.072372206 0.18050236 0.28620023 0.17420468 0.054066688 0.2396183 0.58070385 0.10407429
-0.06657152 0.017782863 0.13929762 0.29627353 -0.36200023 -0.43835732 0.1767397 -0.010563351
0.041498594 0.26747298 -0.42440987 -0.036500156 -0.029684268 0.3107441 -0.5049006 0.030000202
0.023615364 0.14495394 0.014871024 -0.03287728 -0.067055956 0.23832554 0.057669505 -1.7698885
0.21436755 -0.0006904006 0.13170354 0.05723358 -0.08850151 0.097254366 0.074389964 0.16486432
-0.25478724 0.068592556 0.10200258 0.23594683 0.036596347 0.17836586 0.26140183 0.06610695
-0.18279451 0.14408216 -0.5385458 0.19005777 0.16551664 0.13062277 -0.09441355 -0.17905931
0.30909237 0.0948684 0.011262484 0.17969312 0.08106913 -0.3944425 -0.16853358 0.11143157
0.18054263 0.19636777 0.18669946 0.14378338 0.005746104 0.34613985 -0.052235246 0.16488688
0.08406509 0.11862672 0.34938395 0.17785206 0.057304967 0.133442 0.10436218 0.0036587708
0.27621803 0.14213282 -0.011803 0.79538596 0.025776442 0.06312627 0.10210744 -0.03454739
0.0177456 0.40523055 0.43157876 0.33973503 -0.039691426 0.04683209 0.06377471 0.23867309
0.04304204 0.1645424 -0.016980693 0.0024907445 0.17103949 0.06550026 0.039969064 0.012274362
0.14214312 -0.003793453 0.5295683 0.0042390036 -0.09653838 0.20791323 0.08430868 0.076639116
0.21988754 0.42547506 0.069546536 -0.057522904 0.0625157 0.011894134 0.26017857 -0.041850995
-0.079774015 -0.017490424 0.32735598 -0.018085856 0.1980525 -0.0060457364 -0.07197498 0.017153095
00000000: 1ae1 303d 697e c33d 3f34 2a3e 0ac1 053e
00000010: 751e 6c3c 8621 013e 3670 4d3e 1241 26bc
00000020: 2d90 363e 9806 013e 416c acbd f58b 3d3f
00000030: 3fc2 243e 097e 453e e903 0e3e 83fe c73d
00000040: ef15 d2bc 4a73 873e 3834 fc3e a629 b33e
00000050: afbb bc3d 4ab7 463e d1a6 a53d 12e3 203e
00000060: b437 883d e1c0 453e 8026 a4bb f6f5 253e
00000070: d1ab 093e d5ae 073e a45d 193e 4aad fb3d
00000080: 7f0f 463d d48f 4bbc 4eaf 213f 7b74 ecbd
00000090: bfd1 873d c7fb d93d 8ae2 683e cd28 0b3e
000000a0: aa1e ab3d afee d03e 9119 adbc b81a b73c
000000b0: e415 d33c 8817 3c3d fc54 b43d d2a7 7a3d
000000c0: fd25 a3bc 5d70 093d 2bc6 393e fe97 943d
000000d0: bc85 703d c855 4c3d 4808 8dbd e9f8 a4bb
000000e0: 9c5f 363e 84de 8b3d 349c 373e 820a 383f
000000f0: b9ce 003d f05b 24bd c436 313e a7c6 5cbd
00000100: 41be a63d 6405 babd 5e0b 9b3c 2cb0 8a3d
00000110: f602 b63d 2b8c 29bd 0c7b 07bd 9f47 933c
00000120: d598 31bd 9583 3bbd 7bd8 f43d 7645 96bc
00000130: 9e15 983d 59d0 91bd 0edf e73e 3673 0a3e
00000140: a70b e4bc d470 3b3e 63c8 343e de7e 193e
00000150: 2d6b 5a3d e2e4 693d 62f7 293d 296d 393d
00000160: b777 113e cd84 583e 71e0 613e 76d8 073e
00000170: 0972 b23c aeb8 fe3d 06c5 843d 20ff 743d
00000180: 9a83 85bd 4291 d33d 66ef 3f3e 9187 21bd
00000190: 258c 753e d932 95be 6f33 dabe 21a2 3a3d
000001a0: b2c1 453e d269 833e 2528 e73d 1fe5 55bd
000001b0: 092f 333e 7634 d23d 3a0d 5c3e 937a 3f3f
000001c0: aba3 1f3e aaff fabd 6c81 e9bd 8d20 21bd
000001d0: a050 82bb 6dce b0be e61e d63e 3f3e c3be
000001e0: 9d98 b13d 994c 543e 00ef 0e3c 0e6d f3be
000001f0: a278 2a3e 99b4 5d3e f314 5ebd 7fd8 b43e
00000200: e137 943d 9cd5 383e d688 923e b662 323e
00000210: 0875 5d3d 805e 753e 02a9 143f e724 d53d
00000220: a656 88bd 5ead 913c 09a4 0e3e 2ab1 973e
00000230: 1858 b9be 5f70 e0be 40fb 343e e811 2dbc
00000240: 6efa 293d 38f2 883e 404c d9be 3081 15bd
00000250: 6c2c f3bc da19 9f3e 2a41 01bf fcc2 f53c
00000260: 0275 c13c ce6e 143e 98a5 733c 54aa 06bd
00000270: a254 89bd 9c0b 743e dc36 6c3d b58b e2bf
00000280: 2b83 5b3e 00fc 34ba 4bdd 063e c26d 6a3d
00000290: 4840 b5bd 4c2d c73d c459 983d 31d2 283e
000002a0: 7973 82be 417a 8c3d bbe6 d03d 0c9c 713e
000002b0: 0de6 153d 8aa5 363e 76d6 853e 1563 873d
000002c0: 7c2e 3bbe 468a 133e 23de 09bf 819e 423e
000002d0: 327d 293e fac1 053e e45b c1bd 535b 37be
000002e0: 5b41 9e3e 5d4a c23d 4886 383c 7901 383e
000002f0: 9207 a63d 5ef4 c9be 1194 2cbe 3c36 e43d
00000300: 2be0 383e a214 493e 252e 3f3e f33b 133e
00000310: d049 bc3b 3e39 b13e a0f4 55bd 1bd8 283e
00000320: 512a ac3d 91f2 f23d 74e2 b23e da1e 363e
00000330: 9db8 6a3d 05a5 083e d7bb d53d fdc7 6f3b
00000340: 736c 8d3e 448b 113e 5f61 41bc 6a9e 4b3f
00000350: 1e29 d33c 5948 813d b51d d13d 9081 0dbd
00000360: 385f 913c 617a cf3e e4f7 dc3e c0f1 ad3e
00000370: 7a93 22bd 01d3 3f3d 519c 823d b866 743e
00000380: da4c 303d ce7d 283e 181b 8bbc c23b 233b
00000390: fa24 2f3e 0025 863d 9ab6 233d 681a 493c
000003a0: f78d 113e 959b 78bb ca91 073f 57e7 8a3b
000003b0: eab5 c5bd 35e7 543e 07aa ac3d f8f4 9c3d
000003c0: 332a 613e ded7 d93e 6a6e 8e3d 239d 6bbd
000003d0: 3b08 803d 9ddf 423c 2036 853e f36b 2bbd
000003e0: 8f60 a3bd 1448 8fbc 349b a73e ca28 94bc
000003f0: 46ce 4a3e 501b c6bb 9e67 93bd a684 8c3c

bias f4 [50]
0.044474285 0.07221789 0.0026443861 -0.041790206 0.07095947 -0.33760688 0.16325101 0.013871534
0.03614009 0.011488716 0.08311586 -0.02365832 0.046709646 0.064245015 -0.008272828 -0.066137984
0.11482623 0.08306748 -0.0037879506 0.039641004 -0.010919648 0.054996844 0.029578695 0.13703111
-0.010803028 -0.0637013 -0.06429106 0.07286578 -0.010849225 -0.06788081 -0.0036924265 0.08812789
0.037539054 0.048573475 -0.013791 0.033421624 0.06550882 -0.028898163 0.048858993 0.070974864
0.024871662 0.061481755 0.0390067 0.07299538 0.1299916 0.018970516 -0.076174274 0.0072211144
-0.04987383 -0.036210548
00000000: ab2a 363d f9e6 933d 704d 2d3b 352c 2bbd
00000010: 3353 913d cfda acbe 462b 273e 6e45 633c
00000020: a207 143d 2b3b 3c3c a638 aa3d 18cf c1bc
00000030: 9d52 3f3d e492 833d c18a 07bc 5a73 87bd
00000040: 042a eb3d 481f aa3d 443f 78bb 9b5e 223d
00000050: 53e8 32bc 5f44 613d 054f f23c e251 0c3e
00000060: 2fff 30bc d475 82bd 08ab 83bd a73a 953d
00000070: f3c0 31bc 1805 8bbd a3fc 71bb 657c b43d
00000080: 8dc2 193d fbf4 463d a5f3 61bc 1de5 083d
00000090: 7d29 863d d7bb ecbc 5e20 483d 455b 913d
000000a0: a8bf cb3c 4bd4 7b3d 7dc5 1f3d 9a7e 953d
000000b0: 851c 053e 0e68 9b3c 4201 9cbd 199f ec3b
000000c0: 8048 4cbd 8351 14bd

weight f4 [1, 50]
0.30346867 0.30574822 0.17708565 -2.3707567e-05 -0.01818113 0.5497908 0.31472802 -0.078545615
-0.0838372 -0.020176612 0.28751916 -0.040978417 -0.08431939 0.26726642 -0.0403001 0.1718144
0.20921068 0.22745377 -0.015714563 -0.06575275 -0.04687974 -0.1263217 0.23503016 0.2309923
0.28371555 -0.06010009 -0.09621199 -0.050591882 0.2501428 -0.012809879 0.22681925 0.2893815
-0.1010918 0.27665225 0.17778984 0.2214418 -0.05376883 -0.108250685 0.0055446276 0.18663622
-0.07682732 0.0010934763 0.19934276 0.18254787 0.25397515 0.16295893 -0.062113065 0.244503
0.18320893 0.23842704
00000000: 3f60 9b3e 088b 9c3e f155 353e 9ddf c6b7
00000010: 98f0 94bc 17bf 0c3f 0824 a13e 86dc a0bd
00000020: d7b2 abbd 6c49 a5bc b635 933e fcd8 27bd
00000030: a5af acbd 25d7 883e b811 25bd 1df0 2f3e
00000040: 533b 563e a4e9 683e d4bb 80bc 61a9 86bd
00000050: f804 40bd 7a5a 01be bfab 703e 3f89 6c3e
00000060: 2a43 913e 832b 76bd cb0a c5bd 6f39 4fbd
00000070: b812 803e 87e0 51bc 4e43 683e d029 943e
00000080: 3809 cfbd 5da5 8d3e 8a0e 363e a4c1 623e
00000090: b43c 5cbd 89b2 ddbd b5af b53b 911d 3f3e
000000a0: a457 9dbd fa52 8f3a 8220 4c3e d4ed 3a3e
000000b0: 0809 823e b5de 263e 456a 7ebd ff5e 7a3e
000000c0: 1f9b 3b3e 3826 743e
